checkpoints/dqn_final.pth (torch, 145701 bytes, 9 tensors)

feature.0.weight f4 [128, 10]
00000000: 1008 61bf 8cef 33bf 17e5 d6bf 1b82 2dbf
00000010: 945e b3be 4e47 18be 8536 143f 72df 05bd
00000020: 16e6 d23f 380d 4440 5860 49bf aff4 23bf
00000030: 1927 ccbf 8061 873f 04a9 dc3e 785c b8bf
00000040: a1d6 743f 155f 2cbf 6417 f43f 7e3f 80bf
00000050: b02f 1fbd cff2 d33e f59f 6b3e 0962 53bf
00000060: 8450 59c0 5af3 353f fc69 e9be 10d8 86bf
00000070: 5fa7 a93f 314b 963e cf72 37c0 9474 97bf
00000080: b071 193f 784b c4be 73bb 0fbf c4b3 5e3f
00000090: ac92 4fbf 440e 3dbc 3993 073f 87f7 283f
000000a0: 528d dfbd 6e75 76be 41de f13e a9a5 ff3d
000000b0: 8a43 1dbe 0d45 29bf c04b 97bf 55c4 d8bd
000000c0: 9f45 b93f 8835 83bf cceb d83e 6112 f53e
000000d0: 7fca d43e 212e 7b3e 4eb5 a8be f8a3 563e
000000e0: cba7 d43e 0776 cfbd 7f3a 03c0 0b1b ba3e
000000f0: bcbd c43d 1177 5c3e 2329 fdbe 78b4 203d
00000100: dbed 28bd f267 4bbe 52d1 413e 18ff cb3d
00000110: ec88 bb3f 2e91 48bf b8c6 cb3c ebff bbbf
00000120: 25dc 773e 0858 01bf 1bce ccbe c52c 18c0
00000130: be01 f0be ab43 383f d745 623f 734d 733f
00000140: 4df5 1bbf bfd3 543f 1a6e 1e3e 22c0 cc3c
00000150: a7c0 8bbf 6270 fa3e e602 003f d8f4 92bf
00000160: b8fc 993f 572b 353e a052 a9bf 0c7c 943f
00000170: 7969 f73e 86be abbf 2ff7 8bbe 7c4a 693e
00000180: 351d 8e3e a5ee 98bf f220 b6be b2a1 143f
00000190: b427 da3e b50e d93e 17f2 a3be 90f8 2abf
000001a0: 81ba d0be d726 04bf bd8a 90be 5cf9 cb3e
000001b0: 42a8 2d3f ba82 cf3e 3ee6 823e 41c2 313e
000001c0: a81a c93e 8e56 123f 7f99 afbe 7d56 dcbe
000001d0: 1880 babe 06ec a0be 92c7 3b3f 4ee4 d3bd
000001e0: 1c18 ba3e 30c6 99bf 1ea9 a9be 5f0a 183f
000001f0: 16e5 61bf b77c 34c0 0f77 3cbf 1f93 3bbf
00000200: d8aa 2d3f 8e3d e8be 2d20 423f 8e89 403f
00000210: 8e10 9bbe a8cf 93bf 9e63 133d 9400 ea3d
00000220: 9c70 6b3e a0e1 8abf 2aad 353e 37d6 81be
00000230: 9fcb 14c0 61a5 11c0 6612 093e b553 423f
00000240: eb95 e4bb 5017 c33e c6e2 5abe 6223 aa3d
00000250: 185a b13f a89b 523f 82ac a4bc 1565 85bc
00000260: 910e cf3b a257 bc3c 8e95 5bbd d3c1 293d
00000270: 8a41 1ebd b564 5f3d fdd5 ddc0 63e7 afc0
00000280: 82f9 623e 389f 14bd 641c c73e 52ca 223e
00000290: 01be bebe d199 9e3d 9abd 07be 6546 d3be
000002a0: fe6b a73f 4ca1 9fbf 80e8 3b3f 7f20 5b3f
000002b0: dea4 933f ec11 d83e 4058 05bf 2a1e 9cbe
000002c0: 779b 5dbf ec15 86be ded6 2e3f 0cf4 0dbf
000002d0: 251c 83bd 5029 983d e029 28bd 7937 803d
000002e0: 5173 273f 3dc4 26bf 376c 57bf c840 593f
000002f0: 6474 92be a0d8 1f3e d0f1 bd3d 2157 4b3e
00000300: dcd5 82bd 71f8 55bd 650a 10bf 6b5f af3e
00000310: 9432 2dbf 4761 813f af9f 1abf f645 6b3c
00000320: cb5e 093f b8a7 773f 3f97 8ebf 17cb ebbd
00000330: 9596 91bf 50fc f9be f9a6 9cbc de1a e8be
00000340: 4d47 343e d5fd d33d 0a81 46bf 83a5 24bf
00000350: a842 3bbe 15de a5bf f3d1 a73e 37f9 533f
00000360: 983a 7cbe da06 55bf c9b2 0340 78b5 e8bd
00000370: be15 dcbf fa14 bbbd a8de e23e a23c 0b3f
00000380: d62f 86bf 550a 8ebf 5dc9 9c3e c7c0 2c3f
00000390: cbf4 63bf bc60 09bf 45d1 69be 68f3 1dbf
000003a0: 0beb 223f 02f1 013e 3cd4 acbf 7384 8bbd
000003b0: 5e7f 2abd e26d 79be 398b 8e3f eb71 f43e
000003c0: 1f64 9ebf 71ce 0a3f bc17 2cc0 5ef7 26bf
000003d0: 4d64 163e 18bd 023f 8d21 c3be 84b5 a3bf
000003e0: 4079 d83e ba8f 52be da30 693e 7aa2 753e
000003f0: 27a6 54bf 3390 003f d529 1e3f 8e48 063f
-0.8790293 -0.70287395 -1.6788663 -0.6777665 -0.35033095 -0.1487095 0.5789569 -0.032683797
1.6476467 3.0633068 -0.78662634 -0.6404523 -1.5949432 1.057663 0.430977 -1.4403219
0.9564 -0.67332584 1.9069638 -1.0019376 -0.038863838 0.41396186 0.23010238 -0.82571465
-3.3955393 0.7107445 -0.45588672 -1.0534687 1.3254203 0.29354241 -2.8663824 -1.1832452
0.599391 -0.38338828 -0.561454 0.8699305 -0.8108318 -0.011539046 0.5295902 0.66002697
-0.109156266 -0.24068233 0.4723988 0.12482769 -0.15357795 -0.6612099 -1.1819992 -0.10584322
1.4474372 -1.0250711 0.423674 0.47865584 0.41560742 0.24529316 -0.32950824 0.20960987
0.41534266 -0.10129934 -2.0504453 0.36348757 0.096065015 0.21529795 -0.49445447 0.03923461
-0.04124246 -0.1986387 0.18927506 0.09960765 1.465116 -0.78346527 0.02487503 -1.4687475
0.24205072 -0.5052495 -0.40000996 -2.3777325 -0.4687633 0.71978253 0.8838782 0.95040053
-0.60921174 0.831356 0.15471688 0.02499396 -1.0918168 0.48913866 0.5000442 -1.148097
1.2030249 0.17692314 -1.322834 1.1600356 0.48322657 -1.3417518 -0.27337024 0.2278232
0.27756658 -1.1947829 -0.3557201 0.5805923 0.42608416 0.42394033 -0.32020637 -0.66785526
-0.4076729 -0.51621765 -0.2823085 0.39838684 0.67834866 0.40529424 0.25566286 0.17359258
0.3927815 0.5716332 -0.34296796 -0.43034735 -0.36425853 -0.31430072 0.73351395 -0.1034628
0.3634652 -1.2013607 -0.3313684 0.59390825 -0.8824018 -2.820112 -0.7361917 -0.73271364
0.6783881 -0.45359462 0.75830346 0.7520989 -0.30286068 -1.1547747 0.035983674 0.114258915
0.22992176 -1.0850105 0.17741838 -0.25358745 -2.324928 -2.275719 0.13385925 0.75908977
-0.0069758794 0.38103724 -0.2137557 0.0830753 1.385562 0.8226876 -0.02010179 -0.016283551
0.006318875 0.022991005 -0.053609423 0.04144461 -0.03863672 0.0545394 -6.9323716 -5.4969954
0.22165492 -0.036284655 0.38888848 0.15897492 -0.37254336 0.07744182 -0.13255921 -0.41264644
1.3079832 -1.2471099 0.7340164 0.8559646 1.1534688 0.42201173 -0.52087784 -0.30491763
-0.86565346 -0.261886 0.6829661 -0.5545051 -0.064018525 0.07429755 -0.04105556 0.062605806
0.65410334 -0.65143186 -0.841495 0.84864473 -0.28604424 0.1560998 0.09274638 0.19857456
-0.06388447 -0.052238885 -0.5626586 0.34252486 -0.676553 1.0107812 -0.6039991 0.014359942
0.5366027 0.96740294 -1.1139907 -0.11513346 -1.1374079 -0.48825312 -0.019122588 -0.45332998
0.17605324 0.10351149 -0.7754065 -0.6431505 -0.18287146 -1.2958399 0.32777366 0.82802147
-0.24631727 -0.8321358 2.0577872 -0.113627374 -1.7194135 -0.0913486 0.44310498 0.54389393
-1.0483348 -1.1096903 0.30622378 0.67481655 -0.890454 -0.5366323 -0.22833736 -0.61699533
0.636399 0.12689593 -1.3502269 -0.06812372 -0.041625373 -0.24358323 1.1136237 0.47743163
-1.2374305 0.54221255 -2.6889486 -0.652212 0.14686699 0.51069784 -0.38111535 -1.2789769
0.42280006 -0.2056264 0.22772542 0.23987761 -0.8306603 0.5022003 0.6178258 0.5245446

feature.0.bias f4 [128]
00000000: 7b1c 7d3f 78f4 b03f 2c25 f23f 49e6 71be
00000010: 3b57 b73f c6ea 10c1 60b4 8640 4e21 60bf
00000020: bd9f 01bf e1d9 85bd 5169 3940 42d3 2440
00000030: 37a3 d03f f7ca 30c0 ce65 fc3f fc46 a440
00000040: c44a 2340 8064 ecbf 7ad5 0cbf a62b 83c0
00000050: 3bdb fd3f 941d 7240 1b80 03c0 1b23 e43f
00000060: 86ec 03bf d2e8 86bf dc2f d13f 1217 0440
00000070: 432e 14bf 2c4a b240 79fb a5bd af50 7e3f
00000080: 0f63 9240 155c 9140 667a 393f 5dda c53f
00000090: 4c36 dc3f 8868 633f c37a 94c0 24a3 bf3f
000000a0: e0aa 7e3f 5161 1540 d2ea 313d 80b0 0dc1
000000b0: 85e3 933f 93ed ee3e 1825 91c0 8da6 2b40
000000c0: 15a8 e03f a736 a73f d4ff 0440 9618 13bf
000000d0: 0534 d03f 99e1 7d3f 7dc3 1240 6f4e cb3f
000000e0: ac70 5e3f e698 8940 82c7 a33f ed8c 1340
000000f0: f3c6 703f 277a 1f40 ecec 863f a46d 14c0
00000100: 5157 e13e bd58 e83f b838 be3d 5af0 2140
00000110: d698 f9bf 1f58 cb3d a1e8 5940 9e63 273f
00000120: 7b8d eabf 1d43 91bf 6065 afbe f592 4f40
00000130: 4cb0 61bf ad69 8540 9890 2b3f 666a 32bd
00000140: 11b2 9fc0 0a30 8b40 ace9 0b3f 154e 273f
00000150: 70d2 e33f 8075 8340 5407 913f 9ce7 1f3f
00000160: 8d20 653e 4826 8e40 7a8e 06c1 bb81 7cbf
00000170: bf9c aebf cd5f 9ebe 4d37 cec0 2f99 2cbf
00000180: bfc2 c040 b6f3 a2bf d27f 2940 9cfa 3040
00000190: cc81 b4be f5ea 163f 464c cf3f f4b6 2c40
000001a0: 8981 e93e 5f32 573f 8b9b 4640 af79 26c0
000001b0: 0ff5 a83f b239 bf3f 5800 81bf 1dfc ec3d
000001c0: 2142 4b40 0c57 cb3f 0773 82c0 4d85 b140
000001d0: 5621 7e3f ce35 bebf 6d19 e53f 8a5d e83e
000001e0: bbb7 9e3f 3309 4d3f b27e ca3f 7f64 8cbe
000001f0: 4889 1d3f 8e1b e6bf 2e47 003f a762 66be
0.9887158 1.3824606 1.8917594 -0.23623003 1.4323496 -9.057318 4.2095184 -0.8755082
-0.50634366 -0.06535698 2.897053 2.5753942 1.6299809 -2.762388 1.9718568 5.133665
2.5514383 -1.846817 -0.5501324 -4.099078 1.9832529 3.7830553 -2.054694 1.7823213
-0.5153278 -1.0539801 1.634273 2.063908 -0.5788309 5.571554 -0.08104605 0.99341863
4.574592 4.5424905 0.7245239 1.5457264 1.720407 0.8883138 -4.6399856 1.4971662
0.99479485 2.3340647 0.043436833 -8.855591 1.1553808 0.4666563 -4.535778 2.6820405
1.7551295 1.3063554 2.0781145 -0.5745939 1.6265875 0.9917236 2.2931817 1.5883311
0.86890674 4.2999144 1.279526 2.3054764 0.9405357 2.4918306 1.0541053 -2.319192
0.4401193 1.8152081 0.09288162 2.530295 -1.9499767 0.09928917 3.4048235 0.6538638
-1.8324426 -1.1348606 -0.3425703 3.2433445 -0.8815963 4.16915 0.6701751 -0.0435585
-4.9904866 4.349614 0.5465343 0.6535352 1.7798595 4.1080933 1.1330361 0.6246278
0.22375698 4.442173 -8.409784 -0.98635453 -1.3641585 -0.30932465 -6.4442506 -0.6742124
6.0237727 -1.2730625 2.6484265 2.765296 -0.35255277 0.58952266 1.6195152 2.6986666
0.4560664 0.84061235 3.1032436 -2.601177 1.3199786 1.4939482 -1.007823 0.11571524
3.1759112 1.588594 -4.0765414 5.547522 0.99269617 -1.486017 1.7898384 0.45383865
1.239982 0.8009216 1.5819914 -0.27420422 0.615376 -1.7977159 0.5010861 -0.2249857

value_stream.0.weight f4 [128, 128]
00000000: 6871 483f 1491 ad3e b70e 93bf be5f 253f
00000010: a91d 16bf 578a a33e f460 f3bd daee 5dbf
00000020: f996 1c3f 13eb 993e c3da 0c3f bcf9 88bf
00000030: 0276 68bf 3dea 1cbf d42f cebd 2e52 a9bf
00000040: b759 abbf adf8 6fc0 ae76 d2bd ec61 83be
00000050: 00a1 203f b2c9 2ebe 0c94 d43e 3e80 eb3f
00000060: be3a f8bf ff61 4bbf 30ff 34bf 60a5 843f
00000070: 09bb 773f 1be0 b43e f874 68be fea4 9ebd
00000080: 49e5 b7be dbcc 33bd 9239 0b3e 7ff2 c33c
00000090: fd98 cc3f 68e3 46c0 e4f0 2dc0 57ef 2f40
000000a0: 31a6 49be b4e3 b53f fbbd 193b 270c 913e
000000b0: 2885 1b3e f916 88bf cf1f 8ebf ccaf d1bd
000000c0: 64b5 92be eaa7 a9bf ab4d 323e 67ac 3fbf
000000d0: 61fd e23f 92c5 5bbc 4c22 103d b2fb ca3e
000000e0: 74bb 433f 94f2 99be d677 bf3e 40e5 383f
000000f0: 020f 013e fe82 a83e a6ec d43f e509 443e
00000100: 1ce5 be3e 53cd a7bf 7c51 b03f 6407 ac3f
00000110: 7d2b 303e 2b52 a83c 5c97 e6bf d71b d83d
00000120: ad0e 0ebe 7654 d33e 748c 90be 1fae 1f3f
00000130: 1dcd 253f 38eb d3bf ee3b a53f 10ad 5ebf
00000140: 67f0 3dbf aadf 85bf cda6 6dbf df79 4c3f
00000150: acab 313e 29e0 c3bc 8072 10bf 946d 5b3f
00000160: d4d1 52bf 6fae 79be 54c0 bcbf 8ea9 d63e
00000170: f71d a63e 688d f3bf e95c 88be 4fd4 043f
00000180: bcd7 23be 68ec 25bf abc3 ab3d 090c 523f
00000190: 48ee aebd fa89 f2be 4f5f 613f 5b4e 6d3f
000001a0: e392 76bf ae45 d23f 892e 34bf c163 9ac0
000001b0: 012c b4be 2bd2 7f3c 109b 7bbf 66fb f93e
000001c0: 19ac 13c0 77fa fc3f 62ed 2fbf 9029 18be
000001d0: bf52 2fc0 2fba f9bf 8e99 a83f f1a0 cc3e
000001e0: 9dc1 28bf 7c24 91be b1ff 313f 2e50 4abe
000001f0: 79c3 0ebf db41 32c0 fa37 9c3e 66f0 c0be
00000200: 133f 24c0 4b5b a6c0 bfcb eb3f 8da7 a4bf
00000210: 5ab0 89bf 82bc e0be 1272 fabd 8a3a df3d
00000220: b1ea b7bf 1449 173c 5dcb 35bf 1c04 fa3c
00000230: 266c 1dc0 9ea2 f03e 72ac 25c0 a40d 003e
00000240: a0d7 cf3e 2fdd 36bf ac55 403e 76ba 20c0
00000250: 4aac 0b3e af1c 60bf 23da a3be 9f73 1ac0
00000260: 3551 a53e 07b3 a9be bea0 efbd 4a27 bdbb
00000270: 94d1 d9be c206 bbbe e651 06c0 9b45 18c0
00000280: f0f3 f3be 4793 70bc 0ec9 82c0 2f65 0ebd
00000290: c20c 4abf 6be8 af3e 6fec 87c0 0baa 6ebf
000002a0: 8cb6 12c0 c801 443f 81e7 c53f 9fb0 4dbf
000002b0: 9b59 99bf a174 f2bf 7c4f a73f f726 673f
000002c0: 3173 bdbf 4e2d 213f b7d3 2b3f fad3 2a3f
000002d0: fce2 06bf bab3 2a3e 57dc d6bf a356 3dc0
000002e0: 3acd 81bf 8a0b c43e 4754 4140 21a3 0ac0
000002f0: 5c45 e1bf c21f cb3e 1266 883f 809f 73bf
00000300: 8984 11bf abe8 45bf 5ee1 bbbf 0d76 8ebd
00000310: f04b 07c0 9d2e 35c0 96ff 93bd caa8 bebf
00000320: 3fb3 09bf 8bd8 28bf 37e6 9e3f 827a b23d
00000330: 9949 5d3d 3791 f73e 2860 673e f9f0 e6bf
00000340: e2e3 e7bf 27e1 5cbf 26f7 f4be 1a74 8d3f
00000350: 22d5 2bbf e5eb fbbf 10db 19bf 9f99 c03f
00000360: a2ae 9cbf 4f9b bdbf 9b23 18bf d51a 4c3f
00000370: 806b 0abf ad02 c73e 4c7b 3d3d 9275 983f
00000380: f46b 3d3f 58e3 3dbf 307a 9abe 093d b5be
00000390: 0d6c 11c0 05de 7a3f 4e99 cabf 9efe ccbf
000003a0: e91c 523f 318f d03e 7000 8e3e c0a5 ba3f
000003b0: 07e2 cebf bff9 ae3e ad79 1cbf 2410 6dbf
000003c0: d2b8 ffbe 0ce7 58bf a8cd 623d 811f 0f3f
000003d0: 5c75 e23e 735a 18bf b8c5 21c0 4b57 0fbf
000003e0: fe4b ee3f 6f3b 9c3d 5e53 26c0 721b 2dbd
000003f0: 7495 c6bf 4fac 5dbf 3eb4 2dbf 4130 66bd
0.78298044 0.33899748 -1.1488866 0.64599216 -0.5863901 0.31941482 -0.11883727 -0.86692584
0.61167866 0.3006216 0.55021304 -1.0701213 -0.90805066 -0.6129492 -0.10067716 -1.3228204
-1.3386754 -3.749553 -0.102765426 -0.25660646 0.62745667 -0.17069128 0.415192 1.8398511
-1.9392927 -0.79446405 -0.70701885 1.0362968 0.9676977 0.3532723 -0.2270087 -0.077463135
-0.35917118 -0.043896537 0.1359618 0.023919342 1.5984188 -3.1076298 -2.7178278 2.7489831
-0.19692303 1.4210114 0.0023459184 0.28329584 0.15187514 -1.0632011 -1.1103457 -0.10238609
-0.28654015 -1.3254368 0.1741244 -0.7487244 1.7733575 -0.013413804 0.035188958 0.39645153
0.76457906 -0.30067885 0.37396115 0.7222481 0.12603381 0.3291244 1.6634719 0.191444
0.37284172 -1.3109535 1.3774867 1.3439755 0.1720409 0.020546993 -1.8014941 0.10552185
-0.13872786 0.41275376 -0.28232157 0.6237506 0.64766103 -1.6556158 1.2908914 -0.8698282
-0.7419495 -1.0458882 -0.9283264 0.7987346 0.17350644 -0.023910599 -0.56424713 0.8571408
-0.8235142 -0.24382947 -1.4746194 0.41926235 0.32444736 -1.9027529 -0.26633385 0.5188646
-0.16000265 -0.6481385 0.0838693 0.82049614 -0.08541542 -0.47370893 0.88036054 0.92697686
-0.9631788 1.6427515 -0.70383507 -4.824677 -0.35189822 0.015614073 -0.9828348 0.48824614
-2.307379 1.9763936 -0.6872159 -0.14859605 -2.7394254 -1.9509944 1.3171861 0.3996654
-0.6592043 -0.28348148 0.6953078 -0.19757149 -0.5576702 -2.7852695 0.30511457 -0.3768341
-2.5663497 -5.198644 1.8421553 -1.2863632 -1.0756943 -0.4389382 -0.122287884 0.10899837
-1.4368497 0.009233732 -0.7101343 0.030519538 -2.4597259 0.46999067 -2.5886502 0.12505203
0.40594196 -0.7143125 0.18782681 -2.5113807 0.13639942 -0.8754377 -0.32002363 -2.413307
0.3228852 -0.331444 -0.11700581 -0.005772506 -0.42542708 -0.36528593 -2.0987487 -2.3792484
-0.47647047 -0.014683551 -4.087043 -0.034764465 -0.78925717 0.34357008 -4.2476115 -0.93228215
-2.2923918 0.7656522 1.5461274 -0.8034763 -1.198047 -1.8941842 1.3071132 0.9029383
-1.4800779 0.62959754 0.67119926 0.667297 -0.526901 0.16670123 -1.6785992 -2.958413
-1.0140755 0.38290054 3.020769 -2.1662066 -1.7599292 0.39672667 1.0656149 -0.9516525
-0.5684286 -0.7730815 -1.4678152 -0.0695611 -2.1140099 -2.83097 -0.072264835 -1.489526
-0.5378913 -0.6595542 1.2414006 0.08714773 0.054025266 0.48352978 0.22595274 -1.8042289
-1.8116419 -0.86281055 -0.4784481 1.1051056 -0.6712209 -1.9681364 -0.6009989 1.5046881
-1.2240794 -1.4813021 -0.5942933 0.7972844 -0.5407028 0.3886923 0.046260163 1.191088
0.7399285 -0.74175024 -0.30171347 -0.3539813 -2.27222 0.97995025 -1.5828035 -1.6015203
0.82075363 0.40734246 0.2773471 1.4581833 -1.6162728 0.34174916 -0.6112316 -0.92602754
-0.49945694 -0.8472755 0.05537191 0.55907446 0.44230163 -0.59513015 -2.5276928 -0.55992573
1.8616941 0.076285236 -2.5988383 -0.042262502 -1.551436 -0.8659105 -0.6785315 -0.056198362

value_stream.0.bias f4 [128]
00000000: 2f3e 0dc0 f32c 7abe 6ade a5c0 4946 6cbf
00000010: 693e 76c0 f0d6 c840 828a a540 52e3 233e
00000020: a54f 063d 34be 87bf 29b5 8340 b7d1 5d40
00000030: 959e d140 8e82 9e40 2c2d 88bd 7ad4 cbc0
00000040: c9f1 ffbf 08d6 03bf eba0 d840 a286 efbe
00000050: 36ea 1abf 6e32 32bf dcf2 dcc0 89fc dfc0
00000060: 4572 44bd 1819 cfbc 527b 5740 85c9 3cc0
00000070: 6e10 b540 b99a 6140 079d 2c3f 4f15 d3be
00000080: b2ee 55c0 3b32 04c1 6ed3 4cc0 0da1 2340
00000090: 9a4b 6940 2728 ed40 32d8 55c0 5b89 d6bd
000000a0: 81b5 353e 5071 a23d b3d1 aa40 1df4 85bd
000000b0: a55e d63e b9ed 4b40 9996 9ec0 24ae e9bd
000000c0: 2387 4cc0 a517 5640 6a31 e740 bcf5 893a
000000d0: 80d6 4f40 ccde 3fbe e614 0e40 e7f4 3bc0
000000e0: 2695 5c40 826f 2740 cf76 8340 4d9f 3b40
000000f0: c4a2 873f fc44 6740 acb4 2040 f182 963f
00000100: 77da df39 b898 d740 dd78 47bd e57e 26c0
00000110: 32fc c1bd cb00 c4bf 9d2f f8bd 9a58 21bd
00000120: f95d 00bf 930e b5be b552 05c1 726f c440
00000130: 6ab3 873f 599d e4bf f281 c1be b6f8 6b40
00000140: 0288 08be 69ff 07be eafb 2540 190b 8e40
00000150: b6d5 29bf 38a5 0bc0 6da3 d340 12b2 5040
00000160: 1bb1 e5bf 237a 023f e44b 9040 4248 bcbe
00000170: 756c eec0 cc20 6f3e 4425 9ebd 198f 41bf
00000180: 2bf1 7b40 9b53 f6c0 2737 9640 1579 5bbe
00000190: 68bf 6bbf 67f0 5b40 0987 97bd a99c c8c0
000001a0: 6537 fcbd b8fd 5c40 8a60 2740 881c 9540
000001b0: 769c 1240 fadb 8040 4009 3540 cb90 0ec1
000001c0: ab60 b3be 1110 ae40 bf20 4040 d65b 7840
000001d0: acd6 8340 17b1 9940 1d0a 2440 7649 7740
000001e0: c2ad ac40 fdbf 06bf c08e e3bd ffee e540
000001f0: 8d37 18bd 3a0e 5340 3f41 b2bd 56a1 69bf
-2.2069204 -0.2443121 -5.1834 -0.92294747 -3.8475592 6.2762375 5.1731577 0.16004685
0.0327908 -1.060492 4.1158643 3.465925 6.550608 4.953437 -0.06649241 -6.369687
-1.9995662 -0.5149846 6.7696433 -0.46782404 -0.6051363 -0.696082 -6.904646 -6.999577
-0.04796054 -0.02528052 3.3669019 -2.9497998 5.6582556 3.5250685 0.67427105 -0.41227195
-3.3426938 -8.262263 -3.2004046 2.5567048 3.6452394 7.4111514 -3.3413205 -0.10475417
0.1774502 0.07931769 5.338098 -0.065407015 0.41869083 3.1863844 -4.9558835 -0.11410168
-3.195748 3.3451931 7.224782 0.0010525505 3.247467 -0.18737334 2.2200255 -2.9368227
3.4466033 2.616181 4.108253 2.931598 1.0596547 3.6135855 2.5110273 1.175871
0.00042696644 6.7373924 -0.04869925 -2.601495 -0.094719306 -1.5312742 -0.121184565 -0.039391138
-0.5014339 -0.35362682 -8.332692 6.138604 1.0601628 -1.7860519 -0.37794453 3.687055
-0.13333133 -0.13281025 2.5935006 4.4388547 -0.6634172 -2.1819592 6.6136994 3.2608685
-1.7944673 0.50967616 4.509264 -0.36773878 -7.4507394 0.23352355 -0.077219516 -0.75608975
3.9365947 -7.6977057 4.6942325 -0.21432908 -0.9208894 3.436548 -0.07398803 -6.2691236
-0.12315253 3.4529858 2.6152673 4.659733 2.2907996 4.0268526 2.8286896 -8.91035
-0.3503469 5.439461 3.0019987 3.8806052 4.119955 4.8028674 2.5631173 3.8638587
5.3962107 -0.526367 -0.11111212 7.1854243 -0.037162352 3.2977433 -0.08703851 -0.91261804

value_stream.2.weight f4 [1, 128]
00000000: 65db b6be cd8a d2bf f490 35bf 2847 04bf
00000010: 6fb2 38bf 6426 153f 2c38 c23e 0ea2 45bf
00000020: ec53 0abd 6d4a 49bf e495 483f 584d cc3f
00000030: cb44 683f 8f28 5e3d 944a a2bd da42 5cbf
00000040: 13bf d1bf ccd1 a0bf 3f87 ae3e 459a 4c3f
00000050: 699c a3bf db3f 5ebf 0dce afbe 3ab2 cdbd
00000060: 710c 6fbc 6e45 77bb d8d0 c83e 3e07 f1be
00000070: 4bf5 973e 17a2 093f 83f7 a0bf a6aa 88bd
00000080: 7c0d a6bf e1c1 1cbf 0bac 34be c82e cc3e
00000090: d4a7 25c0 d1d5 1f3f e030 96be febb 38c0
000000a0: 9f1a 883f 6dfb 8c3f 787c 9a3e 8b8a cdbc
000000b0: 6572 3240 a5ab 913b dc71 d4be 66e4 83bc
000000c0: 5e32 62be f143 ca3e 4275 d93e 008b 96bb
000000d0: d160 8e3e 6063 8d3f 8f3a db3f ad58 08bf
000000e0: 1d75 873f 98cc eb3e 0e52 9f3f 7afb 63bc
000000f0: 6fa9 f43e 1be6 053e dea1 f43e 2365 023f
00000100: 5fa9 1bbc 9965 a43e db14 953c 3293 e7bf
00000110: bd0d ccbf 0778 debf cfa1 df3b 78ea 31bf
00000120: 0434 26bf 7143 2cbf 9e9a 04bf e8f6 783e
00000130: 23d2 d63f 792a 65bf 872c 4ebf be20 133c
00000140: dc0b f03b fe8e 3dbf 4d55 193c 9fbd 8e3e
00000150: ba0e 89be 5a7e 9ebf 4e0d d93e bc4f b13d
00000160: 7f3b 973c 18d0 7cbf c8d6 07bf 9952 7fbf
00000170: 1d75 74be 63d9 6dbf 3324 593f f19e 09bf
00000180: b3f2 323f acac 9bbf fab8 9f3f 7606 89bf
00000190: e3c8 3ec0 67f9 d93b 7099 393b b39c 7cbe
000001a0: 7867 a0bc d6dc 713e dc8b 12c0 6db1 963e
000001b0: 7207 2240 b563 ed3e e1dd e3bc b512 2bbf
000001c0: d470 913a 61f5 0d3f 7ede 1cbb e954 823e
000001d0: 8b27 e6b9 3853 9fbf b0c2 bc3e 38f1 063f
000001e0: dae7 8c3f b182 85bf 5935 cabc 2d33 e03e
000001f0: 4dbb 88bc 57dd e7bc 8082 eb3c ce19 67bf
-0.3571426 -1.6448609 -0.70924306 -0.51671076 -0.7214727 0.58261704 0.3793348 -0.772004
-0.03377144 -0.7862919 0.78353715 1.5961103 0.9072997 0.0542379 -0.07924381 -0.8603951
-1.6386436 -1.2564025 0.3408756 0.79922897 -1.2782108 -0.86816186 -0.34336892 -0.1004376
-0.014590369 -0.0037730592 0.39221835 -0.47075838 0.2967933 0.53762954 -1.2575535 -0.066731736
-1.2972865 -0.61233336 -0.17643754 0.3987944 -2.5883684 0.6243563 -0.29334164 -2.8864741
1.0633124 1.1014229 0.30173087 -0.025090476 2.788232 0.0044455105 -0.41493118 -0.01610012
-0.22089526 0.3950496 0.42472273 -0.004594207 0.2780824 1.1045952 1.7127246 -0.5326031
1.0582615 0.4605453 1.2446916 -0.013914937 0.47785518 0.1307606 0.47779745 0.5093557
-0.00950083 0.32108763 0.018198421 -1.8091795 -1.5941693 -1.738038 0.006824709 -0.69498396
-0.6492312 -0.6729041 -0.5179843 0.24312937 1.6782879 -0.89517933 -0.80536693 0.008979974
0.0073256325 -0.74046314 0.009358716 0.27879044 -0.26769048 -1.238231 0.42392963 0.08657786
0.018460987 -0.98755026 -0.53062105 -0.9973541 -0.238728 -0.9290983 0.8482086 -0.5375815
0.6990158 -1.216207 1.2478325 -1.0705097 -2.9810112 0.0066520455 0.0028320216 -0.24669151
-0.019580588 0.23619398 -2.2897863 0.2943224 2.5317044 0.46365133 -0.027815761 -0.6682542
0.0011096247 0.55452543 -0.0023936327 0.25455406 -0.0004389848 -1.2447271 0.36867285 0.5271182
1.1008255 -1.0430509 -0.024683641 0.43789044 -0.016690874 -0.028303785 0.02874875 -0.9027375

advantage_stream.0.weight f4 [128, 128]
00000000: adeb 1cc0 99a3 17c0 dc13 5abf 54a0 26c0
00000010: 82fa 2b3f 1d2a febf a23b 903e a8e7 47be
00000020: 1e5d 11bf 6e61 38bc 4010 083f faac 3d3e
00000030: 1bc5 c7bf 2d84 90bf b622 debf a78c 7cbf
00000040: 97fd da3e af4e 9ebf b6cd 883f 9cd2 c63e
00000050: 5688 bfbd ae9d 38be d16b 923f 24a2 febe
00000060: d4b9 4c3f 00b9 d0bf fa43 723f b369 2540
00000070: c923 2dbf 4f3a 5ebe 1ae5 19c0 8bf3 17c0
00000080: 3f62 e2be b13b 35be 87eb 6dc0 da4f 553f
00000090: 2881 5b3f 9f1c d6bf 0037 46c0 b7f7 29c0
000000a0: 38d0 553e 9ff4 303f 4477 5bbf 33c1 f0bf
000000b0: b9f4 cebe d25c efbf 1469 34bf ede9 c5be
000000c0: 4697 41c0 c360 19bf 9ee7 003d ec2d e0bf
000000d0: d5e9 ee3f de9c a9be 5e2e a0bf 62e9 c63e
000000e0: 9b1d b1bd 09fc 3abe 7079 15bf f903 45c0
000000f0: fe89 c0be 9a7e 1d3f c370 b83e 7988 74bf
00000100: e0ee 313f bf6a 38bf b4c6 d13e dbd7 91bf
00000110: eecb 02c0 2f41 dabe a512 e7be cbeb 663f
00000120: c111 55bd 27fb 4ec0 1134 23c0 50a5 9a3e
00000130: 07e9 7fbf c7ca 8cbc a4b3 3d3e 4a87 15c0
00000140: 3d48 eebf 7f67 67be fb42 04bf 9530 7d3e
00000150: a613 59bf 29f4 70bf f567 6cbf c7e0 74bf
00000160: 4c10 373f a600 753f 20f5 a7bf 0441 01c0
00000170: 5ab4 153f 11f2 9abf 813d 50c0 6202 2f3f
00000180: b77f d8be 9ff2 c3bf 8774 0ec0 ebbe 0ebf
00000190: 6fa7 4f3f 69b4 b6bc 34d0 fd3d 8373 07bf
000001a0: 1f03 673f 1c3f 313f 72a0 c13e 5218 6ec0
000001b0: 559c 293d 7e75 c03f 5a40 b4bd 9de8 b7bf
000001c0: e4b8 003f a5aa df3f 6aee d5bf 7679 f9bd
000001d0: 1713 38c0 a4fc 0ac0 acd0 4f3f dd95 cebf
000001e0: a034 233f fe6c 0fbf d947 5a3f 0f6d 16c0
000001f0: 395b 293f fa2a 99bf 1b14 db3e 463e 6d3f
00000200: 67a5 203e 73d9 f4bf e2db 43bd 56c6 253f
00000210: 9d9f a8bf 302b 6f3f 7270 523f fee3 d03e
00000220: 348a 25bf afc4 64bf fdfc c4be cf17 15bf
00000230: d990 2fc0 131a 02c0 9585 8bbe 098c 963e
00000240: e27c 963e 3b79 093f 5be1 273f f8e2 473f
00000250: 98d8 9abe e897 0dbf 491b b8bf 4b21 8bbf
00000260: 77cf 993f 8ef8 493f 2cd0 993f 8cb9 2fbe
00000270: 7b5f 253e 0fbf 273e 5478 78bf ace2 273f
00000280: c01b 57be c2f4 9cbe de44 ebbf 137c 1cc0
00000290: e1f4 37c0 04be 023f 0c1c 1ac0 1c6f b3bf
000002a0: 2d77 ed3f 77e4 033f 63ae 57c0 b34f 75bf
000002b0: 0916 50c0 e7de 883e ac99 4bbf f463 df3d
000002c0: 37fd 3ebf 45e8 4dbf 4942 173f edd8 49bf
000002d0: 4d34 fdbf fc7a f8bc affc 94c0 06b6 38c0
000002e0: e14a e0bf 5842 2b3e 2c5b ab3f 8d8a 473f
000002f0: 914e 4d3f e2c3 a5bf bf20 35c0 f604 36bf
00000300: a75b 97bf d377 d63f 6cec 8a3f 83e5 23c0
00000310: baf9 01c0 bda3 a6bf 28a0 08bf 80e2 243d
00000320: b8b1 083e 6880 34bf b16c a7bf 64e6 74bf
00000330: 141f ab3f 1c0e ee3e 1121 19c0 58ac f7bf
00000340: 6477 74bf ad85 b5be 8ced f8bf 91b6 d5be
00000350: 2bfe b5bf d5cd 45bf da47 1fbe 0140 80bf
00000360: 082d a1be d052 8bbf ecb1 b2bf 1b24 d5bf
00000370: 1ad5 8b3e b5bb 1b40 e081 f6bf 2368 f8bf
00000380: d39b 01bf 4b6c 883f 9a84 043e 656e bebf
00000390: 1870 2fc0 0667 aa3f 6873 603f afec a2bf
000003a0: e634 a5c0 9202 08c0 6e37 643e aa71 443e
000003b0: 8a55 e73e 219d a2bf 4682 7bbf 339e 3abf
000003c0: dc80 df3e 2794 85bf 0a9f babf d5f9 a4bd
000003d0: e297 f43e ae11 61bf 2119 f33e db9b 933f
000003e0: f6c5 cdbe 476c 24bf 3e89 13c0 8b5f ecbe
000003f0: 3b5b 09bf 9b95 de3f 0ef9 72bf 8956 5c3f
-2.4518845 -2.3693602 -0.85186553 -2.6035357 0.6717912 -1.9856602 0.28170496 -0.19521964
-0.5678271 -0.011253698 0.53149796 0.18523017 -1.5607027 -1.1290337 -1.7354343 -0.9865212
0.427716 -1.2367762 1.0687778 0.38832557 -0.09352176 -0.180289 1.1439153 -0.49733078
0.7997105 -1.6306458 0.94634974 2.5845764 -0.6763273 -0.2170193 -2.4046082 -2.3742397
-0.4421558 -0.17698552 -3.7175004 0.8332497 0.8574395 -1.6727484 -3.097107 -2.6557443
0.2088021 0.6912326 -0.8572886 -1.880896 -0.40421084 -1.8700202 -0.70472836 -0.38655034
-3.024858 -0.5991327 0.031470887 -1.7514014 1.866511 -0.33127493 -1.251415 0.38849932
-0.08648225 -0.18260206 -0.58388424 -3.0783675 -0.3760528 0.61521304 0.3602353 -0.9552074
0.6950512 -0.7203788 0.4097191 -1.1393999 -2.0436969 -0.42627856 -0.45131412 0.9020354
-0.052018885 -3.2340791 -2.550053 0.30204248 -0.99964947 -0.017186536 0.18525559 -2.3363824
-1.8615795 -0.22598074 -0.51664704 0.24725564 -0.84795606 -0.9412256 -0.92346126 -0.95655483
0.7150924 0.95704114 -1.3121681 -2.0195932 0.5847832 -1.2105123 -3.253754 0.6836301
-0.4228494 -1.5308417 -2.2258623 -0.5576007 0.8111486 -0.022302823 0.12393227 -0.5291063
0.9023914 0.6923692 0.37817723 -3.7202344 0.041408855 1.5035856 -0.088013366 -1.4367863
0.5028212 1.7473952 -1.6713383 -0.1218137 -2.8761652 -2.17167 0.81177783 -1.6139485
0.63752174 -0.56025684 0.8526588 -2.3504064 0.6615482 -1.196624 0.42788777 0.92673147
0.15688096 -1.912886 -0.04781712 0.6475576 -1.317371 0.93425274 0.8220283 0.40798944
-0.64664006 -0.89362615 -0.38474265 -0.58239454 -2.7432158 -2.0328414 -0.27250353 0.29403713
0.29392153 0.5370061 0.6557824 0.780807 -0.30243373 -0.55309916 -1.4383327 -1.0869535
1.2016438 0.7889489 1.2016654 -0.17160624 0.16149704 0.16381477 -0.97058606 0.6558025
-0.2100668 -0.30655485 -1.8380392 -2.445073 -2.8743212 0.5107119 -2.4079618 -1.4018283
1.8551995 0.51520485 -3.3700187 -0.95824736 -3.251345 0.2673256 -0.7953136 0.109077364
-0.74605125 -0.8043254 0.5908552 -0.7884663 -1.9781586 -0.030332081 -4.655845 -2.8861098
-1.7522851 0.16724527 1.3387198 0.77945787 0.8019801 -1.2950404 -2.8301237 -0.7110132
-1.1824845 1.6755317 1.08534 -2.5608833 -2.030867 -1.3018719 -0.5336938 0.04025507
0.13349044 -0.7050843 -1.3080045 -0.9566405 1.3368859 0.4649514 -2.3926432 -1.934947
-0.95494676 -0.3545355 -1.9447494 -0.4174085 -1.4218191 -0.772672 -0.15554753 -1.0019532
-0.3147967 -1.0884647 -1.3960547 -1.6651644 0.2731102 2.4333317 -1.9258385 -1.940678
-0.50628394 1.0658048 0.12941208 -1.487744 -2.7412167 1.331269 0.87676096 -1.272848
-5.1627073 -2.1251569 0.2228677 0.19183984 0.4518245 -1.2704202 -0.98245656 -0.7289764
0.43653 -1.0435838 -1.4579785 -0.08055464 0.47772127 -0.879176 0.4748011 1.1531938
-0.40190095 -0.6422772 -2.3052516 -0.46166644 -0.5365483 1.7389406 -0.9491128 0.8606954

advantage_stream.0.bias f4 [128]
00000000: 2692 3fbc 5513 673f 476c e7bd 6df1 a9bd
00000010: 1cc0 1c3e b2da e83d d52f 063f 8912 94be
00000020: b981 a33e f8d4 e5bd 1e9d 88bc 829a 0ebe
00000030: cf3f 36be a3e0 06be 86ed c93e c588 463d
00000040: 3fd9 a33e b3cc 8dbd aebd f33e 7a0e a0bb
00000050: f1f3 45bf bec7 803e 97ba ac3f c3f4 a53e
00000060: 822f ab3d ca23 233f c76d e93e 9b25 943e
00000070: 96b0 d53e 68da e73d 0b8e 3a3f 4bf1 8d3e
00000080: dfe3 00be 10a1 403e 7f03 96bd 6ae0 aeba
00000090: 8dc2 983f c7fe c23e ae26 5ebd d6fb efbc
000000a0: 911a 3e3e 786d 8bbd 767e e6bd 9f5a 2d3e
000000b0: edb1 3c3e 60b6 823e 35ee 043f e5f7 11be
000000c0: 7e51 003f 58aa 46be 8881 303e c15f bc3c
000000d0: 5e8b ddbd 84c8 c83e df7d acbc e3a5 1c3e
000000e0: 4279 ffbd d732 513d 7472 623d 19f0 aabd
000000f0: 4873 ca3d 3e96 fb3e 083d 763c 7e56 a43e
00000100: 9767 b0bc fede 0b3d c4d8 ab3e 9792 a6bc
00000110: fd78 a13e a40f 553c feec b8be 75ec 903e
00000120: ec29 8c3f 44bd b43e 21be 813e 507b c83d
00000130: 2872 b33e ac86 4b3f a082 c4be cf7a b2be
00000140: e0a7 8cbd f736 343f b5e1 febc a0a5 353f
00000150: b9b0 303f 8856 b33f 4b13 1e3e c7a8 b33e
00000160: 52a3 993d 9d80 173e e690 a73f 2ab9 c3bd
00000170: 5be8 9c3e ca74 e6bd 8067 a63e ac08 193e
00000180: 34ed ecbb ffb3 573e 4740 8cbd 7125 0e3e
00000190: 80e4 0b3f 3700 8d3e bda1 503e 2071 f3bd
000001a0: ec5e 4ebd 6537 7b3f daa5 423f 2a94 e9bd
000001b0: 0c83 af3d f6cc 283d d5da df3d 885a 1b3f
000001c0: ffb4 1ebe 7660 7a3e 85cd 31bd 532f 903e
000001d0: e884 043f ee63 9d3e 168b 033f ee1e 05be
000001e0: 6a23 a53e 5fe8 86bd 707f 573e 54bf 19be
000001f0: 1821 fabd 038d 8c3d cda4 12bc 0635 043f
-0.011692559 0.90263873 -0.11299949 -0.082980014 0.15307659 0.11369838 0.52416736 -0.2892039
0.31934908 -0.11222261 -0.016676482 -0.13926128 -0.17797779 -0.1317163 0.39439029 0.048470277
0.32001683 -0.06923809 0.47605652 -0.0048845382 -0.7732535 0.2515239 1.3494443 0.324133
0.08358671 0.63726485 0.45591566 0.2893494 0.41736287 0.113209546 0.7287299 0.27723154
-0.12586926 0.1881144 -0.073248856 -0.0013342027 1.1934372 0.38085005 -0.054236107 -0.02929489
0.18564822 -0.06807989 -0.11254589 0.169291 0.18427248 0.25529766 0.51925975 -0.1425472
0.5012435 -0.19400918 0.17236912 0.022994878 -0.10817598 0.3921548 -0.021056114 0.15297656
-0.124743 0.051073875 0.055284932 -0.08346576 0.098852694 0.49138063 0.015029199 0.32097238
-0.02153377 0.03414821 0.33563817 -0.020333571 0.3153762 0.013004217 -0.3611831 0.28305402
1.0950294 0.35300648 0.2534037 0.09789145 0.35048032 0.7950237 -0.3838091 -0.3485932
-0.06867957 0.7039637 -0.031113485 0.7095585 0.6901966 1.4010782 0.15437047 0.35089704
0.07501854 0.14795156 1.3091094 -0.095568016 0.30646023 -0.112527445 0.3250084 0.14944714
-0.0072304253 0.21064757 -0.068481974 0.1388147 0.5464554 0.27539226 0.20374198 -0.11886811
-0.050383493 0.981314 0.7603432 -0.11405213 0.08569917 0.04121109 0.10930411 0.60685015
-0.15498732 0.2445086 -0.04340889 0.28161106 0.517653 0.30740303 0.51384103 -0.1300008
0.3225358 -0.0658729 0.21044707 -0.15014392 -0.122133434 0.06862833 -0.008950424 0.5164341

advantage_stream.2.weight f4 [6, 128]
00000000: 841a 9b3f f07c e9bf e505 69bd 207b 71be
00000010: 1c8d dd3f eb79 f53e a884 063f 1b22 b3bf
00000020: 2392 07be a740 79bc 14e5 b13b 00c0 75be
00000030: 9c97 b8bc a056 7f3d 47bb 8c3e 2746 e3bf
00000040: 3578 673f 0c3d 65bd 1b21 083f d79e 063d
00000050: 3cc7 18bf b5ed 14bd 9471 2a3e 19a6 96bd
00000060: 5925 9cbf 6be5 473f 9a0c 20bf 8acf 3dbf
00000070: 2270 a7bd 10ff d03f 2e10 13be 3c05 85be
00000080: 3742 e3bf dd81 a23f 8f68 353d a6b6 823c
00000090: d274 543c 8e05 0f40 fab6 b63e 57d9 003f
000000a0: cb4d 903e 9678 d7bc 86c1 c5bb 732d b9be
000000b0: 5887 bf3e 3065 623e ffd0 bfbf d4e6 1bc0
000000c0: 2eea d23f cb4f 883e 35cb 01be 4e90 9b3f
000000d0: 9c14 92ba 35a3 51c0 78cc 98bc 2435 14bf
000000e0: 0592 81bb ed74 163f a87e 2c3f 8734 00bd
000000f0: 2009 0a40 6554 833f ce7e 2140 94ed 5bc0
00000100: 7595 3ebc 7bd6 02c0 d078 0cbe 13a2 cdbf
00000110: e73e 8abf f9cc 2740 51db d2bf 71c0 6f3e
00000120: a5c7 e03d 65c3 993f 6d50 f63e 2c26 c7bf
00000130: 87f7 79bf 2602 213f c747 553f 3578 ea3f
00000140: 97e1 71bd 7cfd 3540 d660 97bc de0c 673e
00000150: 975f f5bf b7c1 973d fd65 b63f b5d8 453f
00000160: 3002 eebe b2f4 b93e 4139 ffbc e03f 863a
00000170: 6c1d c8bf ff71 aa3a b7b9 703f f929 243f
00000180: 13db df3d 2598 e0be c1fe 79bc d9d2 37be
00000190: cf44 5e3f 0961 f8bf 6cd6 9c3e ab0d 96bd
000001a0: 58a3 04c0 ff8f 203f 25eb 933f 4dd2 763f
000001b0: 7aab 0f40 fd70 8e3d 0e12 01c0 98cd c33f
000001c0: 191e cebe 4755 a6be c9ff 2d3d 685c 32c0
000001d0: 43ee 9c3f 745d 463f 84a4 b43e 9fb6 18bd
000001e0: b74b b43f dba6 72bf e828 0bc0 14e1 253b
000001f0: 9cdd 433d db50 03c0 04ed 1cbc 603c b4be
00000200: e053 a3ba 6dd4 7f3f 57f4 53bc 0509 9bbf
00000210: 6f04 3640 f828 4d3e 4ee0 a43e fda2 41bf
00000220: 6024 233d 5811 c33d 6ed4 92bd d16d 5c3f
00000230: 1f53 dabb 226e 3d3d 8632 633f 7794 623e
00000240: c1d9 043d a464 063d cbc2 7fbf 33db 81bc
00000250: ec58 d4bf 5df6 28be 0e68 2c3e b799 883f
00000260: 240d 223f e87e 533f 87f5 02bf 7be3 543f
00000270: 1b62 c0bf 0583 1f40 069d a23e e8ca 0640
00000280: 4fdf f2bf 8f74 31bf 728b 15bc 0476 38bd
00000290: ea12 2d3e da52 b9be 084f 813f ad71 9fbf
000002a0: 9f41 acbf e7ae 03bd 163b 01bd aa76 2ac0
000002b0: 482f 95be 4582 d2bf f2b2 fa3f 0134 0340
000002c0: 04e9 b13f 6fb0 143b 02b1 e7bc cf49 96bf
000002d0: 9d86 41bc bab5 da3f add1 d3bd 62f0 37c0
000002e0: 870b aabd b706 a13d 68b5 ccbf e396 46bc
000002f0: 0894 aabe b479 493f 9ebd 4240 55ed bc3f
00000300: 25e4 af3a 100c c03f 4ae6 523e 87ad 953f
00000310: 12b6 f33e 2f70 3fc0 39a5 8a3f 012a 40bf
00000320: be58 7abc 241d 3f40 ab1b 73bf c825 803f
00000330: 7fb8 d53f c469 d83e 18ca fbbf d85e 12c0
00000340: 0fdf 21bd 178f 84bf 52e6 583d 57e9 eb3e
00000350: a781 633f c730 8b3d 533b 2b3f f2b3 b1bf
00000360: d16e 0c3f b6a5 e8be a33b 4a3e a208 2abc
00000370: a208 e03e ca22 163f 2f08 a63e 7bab 863f
00000380: 58c0 77bf 9dd4 083f 5fc4 49bd 200a 573f
00000390: 2aa4 b83e deba 14c0 35ea a73e a137 b93c
000003a0: e8ef b63f 5a0a 203f 5f58 98bf cc4e 13c0
000003b0: 7289 0ebe d4a5 893c 6839 d73e aefe 6bbf
000003c0: cbb9 8b3e d832 f7bf 4460 963d bdae d23f
000003d0: 287f 6abf 6159 bebc 51fc 13be b866 543c
000003e0: 3450 7cbf a218 a1bf a525 1f40 0018 5fbd
000003f0: aa4e 0cbd 9a7a ce3c f658 a1bc 3bd2 ec3e
1.2117467 -1.8241253 -0.056890387 -0.23582125 1.7308688 0.4794458 0.5254617 -1.3994783
-0.1323934 -0.015213168 0.0054289196 -0.23999023 -0.02253323 0.06233847 0.2748663 -1.7755784
0.90417796 -0.055966422 0.53175515 0.032866325 -0.5967901 -0.036359508 0.16644889 -0.07355899
-1.2198898 0.7808444 -0.6251923 -0.74144804 -0.081756845 1.6327839 -0.14361641 -0.25980556
-1.7754582 1.2695881 0.044289168 0.015956234 0.012967305 2.234714 0.35686475 0.50331634
0.2818435 -0.026302617 -0.0060350327 -0.36167488 0.37407947 0.22108912 -1.4985656 -2.4359636
1.6477716 0.26623377 -0.12675174 1.2153413 -0.0011145058 -3.2755864 -0.018652186 -0.57893586
-0.0039541745 0.58772165 0.6738076 -0.031300094 2.156807 1.026013 2.5233645 -3.4363756
-0.011632313 -2.0443408 -0.13717961 -1.6065086 -1.0800446 2.6218855 -1.647318 0.23413254
0.10975579 1.2012755 0.48108235 -1.5558524 -0.9764332 0.62893903 0.8331265 1.8317934
-0.05905303 2.8435965 -0.018478792 0.22563502 -1.9169797 0.07409995 1.4249874 0.77283794
-0.46486044 0.363195 -0.03115523 0.0010242425 -1.5633979 0.0013003944 0.9403338 0.64126545
0.10930457 -0.43866077 -0.015258492 -0.17951526 0.86823744 -1.9404613 0.3063234 -0.07326826
-2.0724697 0.6271972 1.1556135 0.96414644 2.244841 0.069551446 -2.016727 1.5297117
-0.40257338 -0.32486936 0.042480264 -2.78689 1.2260212 0.7748635 0.35281765 -0.037283536
1.4085606 -0.9478585 -2.1743717 0.002531116 0.047818765 -2.05181 -0.009577993 -0.35202312
-0.001246091 0.9993351 -0.012936673 -1.2112128 2.8440206 0.2003516 0.3220238 -0.75639325
0.03982961 0.095247924 -0.07169424 0.86105067 -0.006662741 0.04624761 0.8874897 0.22126947
0.03243423 0.032810822 -0.99906605 -0.015851593 -1.6589637 -0.1650023 0.16836569 1.067191
0.633013 0.8261552 -0.51155895 0.8315961 -1.502994 2.4923718 0.31760424 2.1061344
-1.8974398 -0.6931848 -0.009127485 -0.045034423 0.16901746 -0.36196023 1.0102243 -1.2456566
-1.3457526 -0.03214922 -0.03155049 -2.6634927 -0.29137635 -1.6446005 1.958586 2.050049
1.3899236 0.002268817 -0.028282646 -1.1741275 -0.011811879 1.7086709 -0.10342727 -2.8740468
-0.0830298 0.07862609 -1.5992861 -0.012120935 -0.33316064 0.7870133 3.0428233 1.4759928
0.0013419433 1.5003681 0.20595661 1.1693581 0.47599846 -2.9912221 1.0831672 -0.7506409
-0.015279947 2.9861536 -0.9496409 1.001153 1.6696929 0.42268193 -1.9671049 -2.2870388
-0.039519366 -1.0356168 0.052954026 0.46076462 0.8886971 0.06796413 0.66887397 -1.388304
0.5485659 -0.45438927 0.19749312 -0.010378035 0.43756586 0.58646834 0.3242812 1.0521082
-0.9677787 0.5344942 -0.04925954 0.83999825 0.36062747 -2.3239055 0.32795873 0.022609534
1.4291964 0.62515795 -1.1901969 -2.3016844 -0.13919619 0.016802706 0.42035985 -0.92185485
0.27290186 -1.9312391 0.0734258 1.6459576 -0.91600275 -0.023235979 -0.1445172 0.012963943
-0.9855988 -1.2585642 2.4866726 -0.054466248 -0.034254707 0.025204945 -0.01969574 0.46254143

advantage_stream.2.bias f4 [6]
00000000: 14ad 1340 d201 b53e 57de 88be 5e33 5dbf
00000010: 479a acbf 6ad4 0ec0
2.3074389 0.3535295 -0.26732132 -0.86406505 -1.3484582 -2.2317147
