models/dqn_final.pth (torch, 145701 bytes, 9 tensors)

feature.0.weight f4 [128, 10]
0	0xbf00d8f7	-0.5033106
1	0xbdef0107	-0.11670118
2	0xbeb380bb	-0.3505915
3	0x3f5efd62	0.8710538
4	0xbef8812b	-0.48536047
5	0xbe609a57	-0.21933876
6	0xbd012ac6	-0.031534933
7	0xbd34dc87	-0.044155624
8	0xbe3cff50	-0.18456769
9	0x3fb99cb1	1.4500943
10	0x3e40227b	0.18763153
11	0x3cc3e9eb	0.023915252
12	0x3f061679	0.5237804
13	0xbdc869f0	-0.09785831
14	0x3dfea171	0.12433136
15	0xbe829f91	-0.25512365
16	0x3befc643	0.007317336
17	0x3d62ab0f	0.055338915
18	0xbe13efa5	-0.14446886
19	0xc09bd15e	-4.8693075
20	0xbe3796c6	-0.17928609
21	0x3e8faba3	0.28060636
22	0xbf2b4cef	-0.66914266
23	0xbfadfdb4	-1.3593049
24	0xbee91537	-0.45523998
25	0x3efcbb04	0.49361432
26	0xbecdcf8a	-0.40197402
27	0xbe11475e	-0.1418738
28	0x3dccf1b4	0.10007039
29	0x3f4d87a1	0.8028508
30	0x3e046c3c	0.12931913
31	0x3e170518	0.14748037
32	0x3ee1535c	0.4400891
33	0xc09ddc92	-4.933175
34	0x3f07a595	0.52987033
35	0xbd56f68a	-0.05248121
36	0x3e77d0be	0.24200723
37	0xbf483456	-0.7820486
38	0xbe1d3e34	-0.1535576
39	0xbea1e233	-0.3161789
40	0x3f8308bb	1.0237039
41	0x3e1eb032	0.154969
42	0xbf95ab88	-1.1692972
43	0x3f84f4ef	1.0387248
44	0xbe90d093	-0.2828413
45	0xbf1fa8a0	-0.62366676
46	0xbd8e8e06	-0.069606826
47	0x3e224100	0.15845108
48	0x3e456d0e	0.19279882
49	0x3f83395c	1.025188
50	0xbd124a73	-0.03571553
51	0x3dc91680	0.09818745
52	0x3ee42f9c	0.44567573
53	0x3dfaba17	0.12242525
54	0x3e160db9	0.14653672
55	0x3cd858a6	0.026409458
56	0x3bccf0b1	0.0062542786
57	0x3c4b8abe	0.012423215
58	0x3e515689	0.20443167
59	0x408b6810	4.356453
60	0xbe1092a6	-0.14118442
61	0xbe26710a	-0.16254058
62	0x3ea59fac	0.32348382
63	0x3e6fb4b4	0.23408777
64	0x3d39570e	0.045249037
65	0xbf1e25dc	-0.6177652
66	0xbed24fc2	-0.41076475
67	0x3eb1771b	0.34661183
68	0x3e7dbe7d	0.24779697
69	0x401dd0b0	2.4658623
70	0x3f899ea1	1.0751535
71	0xbfdb471d	-1.7131077
72	0xbd0a8889	-0.033821616
73	0xbe004302	-0.12525561
74	0xbe42eb9f	-0.19035195
75	0x3e9e5b53	0.3092905
76	0xbe39b7a2	-0.18136457
77	0xbc9b498d	-0.01895597
78	0xbe3a6491	-0.18202426
79	0xc06c2d96	-3.6902823
80	0x3f3e54aa	0.7434794
81	0x3f387a44	0.7206156
82	0x3f15c62b	0.58505505
83	0xbfd17657	-1.636424
84	0xbf5bb72b	-0.8582637
85	0xbe5feb59	-0.21867122
86	0x3e69929e	0.22809836
87	0xbf9ebc32	-1.2401183
88	0x3e8938df	0.26801202
89	0xbf276aa8	-0.6539712
90	0x3dfc64ff	0.12323951
91	0x3deacf0d	0.11465273
92	0x3e935934	0.28778994
93	0xbf2ec475	-0.6826852
94	0xbd63c9ca	-0.055612363
95	0xbeebe6f2	-0.46074635
96	0xc0007d09	-2.0076315
97	0x3e78c800	0.24295044
98	0x3d50eaf8	0.051005334
99	0xbf5ceb8d	-0.8629692
100	0x3e770873	0.24124317
101	0x3f3ff743	0.74986666
102	0x3e99272b	0.29912695
103	0x3fb4b350	1.4117222
104	0xbdcd628b	-0.10028561
105	0xbeaac062	-0.333499
106	0xbeea181a	-0.45721513
107	0xbf34bb7b	-0.7059857
108	0x3da49edd	0.08038113
109	0xbf14a653	-0.5806629
110	0xbedbeae2	-0.4295264
111	0xbe8301ac	-0.25587213
112	0x3ecd151e	0.40055174
113	0x3e323940	0.17404652
114	0x3e0fb4d6	0.14033827
115	0x3e94239a	0.28933412
116	0x3d80ae91	0.06283296
117	0xbf20ba98	-0.6278472
118	0xbe94e97c	-0.29084384
119	0xc01f94b4	-2.493451
120	0xc015df4f	-2.3417547
121	0xbebecf5d	-0.3726758
122	0x3ed965b1	0.42460397
123	0x3e99f462	0.30069262
124	0xbf93d82b	-1.1550344
125	0x3ec8bf14	0.3920828
126	0xbe9b3a01	-0.3031769
127	0x3e213ed4	0.15746623
128	0x3e933c96	0.2875716
129	0xbec6b1ec	-0.3880762
130	0x3f9373e8	1.1519747
131	0x3ecace78	0.39610648
132	0xbeaaa9d7	-0.33332703
133	0xbed0e48c	-0.40799367
134	0xbf3cbb05	-0.7372287
135	0xbef9424a	-0.48683387
136	0xbd966472	-0.07343377
137	0x3d841195	0.06448666
138	0x3de9ace3	0.11409929
139	0xbea0c3dd	-0.31399432
140	0x3f0b41b6	0.5439714
141	0xbf0aea0d	-0.54263383
142	0x3f35bb35	0.7098878
143	0xbf0e56da	-0.55601275
144	0xbf49ea1e	-0.7887286
145	0xbd969112	-0.07351889
146	0xbebe49dd	-0.37165728
147	0xbef90737	-0.48638317
148	0xbe97cc3a	-0.29648
149	0xbfb65524	-1.4244733
150	0xbf6a48f4	-0.9151757
151	0x3f5d7800	0.8651123
152	0x3f89c330	1.0762691
153	0x3e823107	0.2542803
154	0xbd1ac047	-0.037781026
155	0xbf3ca7cb	-0.7369353
156	0xbea7e219	-0.32789686
157	0xbf1c13ec	-0.609679
158	0x3e72a550	0.23695874
159	0xbe765cb3	-0.240588
160	0xbe8c29c0	-0.27375603
161	0xbe5ee678	-0.21767604
162	0x3a9fd558	0.0012194319
163	0xbe8e46ca	-0.27788383
164	0xbd49f7df	-0.049308654
165	0xbdf3f682	-0.11912252
166	0xbe9dc076	-0.308109
167	0xbd88f4d8	-0.06687325
168	0xbe5f448f	-0.21803497
169	0x3e0aafeb	0.1354367
170	0xbcb6d85b	-0.022319963
171	0x3e621087	0.22076617
172	0x3fc7a3fe	1.5596921
173	0x3ecbbd1e	0.39792722
174	0x3e2398f7	0.1597632
175	0x3e8b363d	0.27189818
176	0xbef19b08	-0.47188592
177	0xbd1c70d8	-0.038193554
178	0x3e798030	0.24365306
179	0x4065e0f3	3.5918548
180	0x3e1ad7a7	0.15121327
181	0x3e213648	0.15743363
182	0xbd8d0fdb	-0.0688779
183	0xbe99c3ec	-0.3003229
184	0xbe8a159d	-0.26969615
185	0xbe4dcae1	-0.20096923
186	0xbdbfc495	-0.09363667
187	0x3d1be08d	0.038055945
188	0x3ea00e70	0.31261015
189	0x3eb5e687	0.3552744
190	0xbefd1dd7	-0.49436828
191	0x3ddeca1e	0.108783945
192	0xbf2c08ef	-0.6720113
193	0xbf44ada6	-0.76827466
194	0xbd399b5c	-0.045314178
195	0xbe2ffb8d	-0.17185803
196	0x3e01c7dd	0.12673898
197	0xbde270b2	-0.11056651
198	0xbd3f22d5	-0.046664078
199	0xc02766fc	-2.6156607
200	0xbf2ea903	-0.6822664
201	0x3dcd6e50	0.10030806
202	0xbf9724ec	-1.1808143
203	0x3f1dc1f7	0.6162409
204	0xc0101ac2	-2.2516332
205	0xbd0e4890	-0.03473717
206	0x3d3e79f6	0.04650303
207	0xbf10b484	-0.56525445
208	0xbd16ba4f	-0.03679877
209	0xbf041c3f	-0.516056
210	0x3ec97084	0.39343655
211	0xbc86bede	-0.016448434
212	0xbef5fd3a	-0.4804476
213	0x3f7bfab5	0.98429424
214	0xbfd6919c	-1.6763186
215	0x3c1e3c50	0.009657934
216	0xbf3789da	-0.7169472
217	0xbf24815d	-0.6425989
218	0x3de35eeb	0.111020885
219	0xbdce2ee9	-0.10067541
220	0xbe8cf991	-0.27534154
221	0xbf14e3bd	-0.5816
222	0x3db4adfb	0.08822247
223	0xbf457fc0	-0.77148056
224	0xbef8a146	-0.48560542
225	0x3dc5dbbc	0.09661052
226	0x3e4ba45d	0.19886918
227	0xbec45da2	-0.38352686
228	0xbc8be35f	-0.017076192
229	0x3f6884d1	0.9082766
230	0xbeeaab36	-0.4583375
231	0xc03514fb	-2.8294055
232	0x3e9d41d3	0.30714282
233	0x3eea791c	0.45795524
234	0xbf84af02	-1.0365908
235	0xbed58cb6	-0.41708916
236	0x3ca41185	0.020027885
237	0xbe5aae2f	-0.21355508
238	0x3db4b6f5	0.08823959
239	0x3f17c3ba	0.5928303
240	0xbea4898b	-0.32136187
241	0xbe0e3bec	-0.13890046
242	0x3c933e4d	0.017974043
243	0xbdb7c457	-0.08972996
244	0xbd9202eb	-0.07129463
245	0x3ce055bf	0.027384637
246	0x3ceb71ae	0.02874073
247	0xbdd05336	-0.10172121
248	0xbe5e04bc	-0.21681494
249	0x3f171a7f	0.59024805
250	0xbe72bab8	-0.2370404
251	0xbeb16e04	-0.34654248
252	0x3e8ab5b2	0.27091748
253	0xbcabaefd	-0.020957464
254	0x3de7d1dd	0.11319325
255	0xbdcf9465	-0.10135726

feature.0.bias f4 [128]
0	0xbfa6f5a1	-1.304371
1	0x4091e2dd	4.5589433
2	0xbf607f67	-0.876944
3	0x3f3311c2	0.6994897
4	0xbf2748f4	-0.6534569
5	0xc0935a17	-4.6047473
6	0xc00107ea	-2.016108
7	0x40707519	3.757147
8	0x3e8384cb	0.2568725
9	0x3efbaa81	0.49153522
10	0x3ee301c0	0.44337273
11	0x402bb65c	2.6830053
12	0x3f1df4f0	0.6170187
13	0x3efb4247	0.49074003
14	0x3f5a7192	0.85329545
15	0xbdc7ac69	-0.097496815
16	0xbe623d9e	-0.22093818
17	0xc051e8dd	-3.2798378
18	0xbe9574c1	-0.2919064
19	0x403fd550	2.9973946
20	0x3ecbd611	0.39811757
21	0xbe72cf73	-0.23711948
22	0xbf965aee	-1.17465
23	0xbf9852d8	-1.1900282
24	0xbf28be6d	-0.65915567
25	0xbfdb8375	-1.7149493
26	0xc08f6cfb	-4.4820533
27	0xc00fa667	-2.2445314
28	0x3eeb52d9	0.45961645
29	0xbfa133fc	-1.2593989
30	0x3e932492	0.28738838
31	0xbfdcb54d	-1.7242829
32	0x3bc5acb3	0.0060325502
33	0xbfca89c6	-1.5823295
34	0x3efc896f	0.49323604
35	0xbfbd93ae	-1.4810693
36	0xc0943445	-4.6313806
37	0xbecfeedb	-0.4061192
38	0xbf2c9696	-0.67417276
39	0xbdc48155	-0.095949806
40	0x3fca7509	1.5816966
41	0xbfcd08be	-1.6018293
42	0x3f59ddcf	0.8510408
43	0xbf6bc4c1	-0.920971
44	0x3e769c3b	0.24083035
45	0xbf44b137	-0.7683291
46	0x3f6229fd	0.8834532
47	0xbebdf065	-0.3709747
48	0xc0577a8e	-3.3668551
49	0x3ebf37e7	0.37347338
50	0xbe842265	-0.2580749
51	0x4019b054	2.4013872
52	0xbf7c444f	-0.9854173
53	0x40194f66	2.395471
54	0xbf699bf0	-0.91253567
55	0xbfd18f48	-1.6371851
56	0x4085c5be	4.1803885
57	0x3f02b909	0.5106359
58	0x3e11ab35	0.14225467
59	0x3ed7ab1e	0.4212274
60	0x3faa0c51	1.3285009
61	0xc08d9d81	-4.4254766
62	0xbe844cf7	-0.2583997
63	0x3f11c706	0.5694431
64	0xc037c884	-2.8716135
65	0xc097b358	-4.7406425
66	0xbd53d4f2	-0.051716752
67	0xbfd56d6b	-1.6674017
68	0x3fb94ff9	1.4477531
69	0xbe85521a	-0.260392
70	0x3fa8bd14	1.3182702
71	0x3ed29983	0.41132745
72	0x3ea1dab5	0.31612173
73	0x3edccaec	0.43123567
74	0xc02c8c5f	-2.6960676
75	0xc0346a9b	-2.8190067
76	0xc0533ba5	-3.3005154
77	0xbe97d017	-0.29650947
78	0xc04e996d	-3.2281144
79	0x3eacf8a6	0.33783454
80	0xbf9ee142	-1.2412493
81	0xbee85fbf	-0.45385548
82	0xbf4bbfce	-0.79589546
83	0x4099127d	4.783507
84	0xbc956043	-0.018234378
85	0xbfdb49db	-1.7131914
86	0xbfb3df84	-1.4052587
87	0x3fce3398	1.6109495
88	0xbef149d4	-0.4712664
89	0x3eeb4225	0.45948902
90	0x4020fc20	2.5153885
91	0x3e00ee6d	0.12590952
92	0xbf7765ee	-0.9663991
93	0xbffe65f6	-1.9874866
94	0xbeb894d6	-0.36051053
95	0xbf6c4c90	-0.92304325
96	0xbdffcfb6	-0.124907896
97	0xbdfb1959	-0.12260694
98	0xbda3a6b6	-0.07990782
99	0x3d891770	0.066939235
100	0x3d1f0d7d	0.038831223
101	0x3e634eb2	0.22197989
102	0xbf8b4548	-1.0880518
103	0x3f46d3b0	0.7766676
104	0x40884a5e	4.259078
105	0xbe6a8520	-0.22902346
106	0x40602244	3.5020914
107	0x4058b57c	3.386077
108	0xc03d5324	-2.9581995
109	0xbf3f648c	-0.747628
110	0xbebf57ad	-0.3737158
111	0x4052b56a	3.2923226
112	0x3ef16b59	0.47152212
113	0xc020280d	-2.5024445
114	0xbf752d9e	-0.9577273
115	0x3f19b051	0.6003466
116	0x403d34f7	2.9563577
117	0xbf12b478	-0.57306623
118	0x3e6ee7a7	0.23330556
119	0x3f1a8357	0.6035666
120	0x3d10c36f	0.03534263
121	0xbf19bc4c	-0.60052943
122	0x3f860dad	1.0472924
123	0x3f366c5b	0.7125909
124	0x3fbedd58	1.4911299
125	0xc094d80f	-4.6513743
126	0x3eb726ac	0.35771692
127	0xbfe628db	-1.7981218

value_stream.0.weight f4 [128, 128]
0	0xbed5f695	-0.4178969
1	0x3ca8c51e	0.020601805
2	0xba99154d	-0.0011679322
3	0xbe19a7d1	-0.15005423
4	0x3e9d221f	0.30690095
5	0xbef20018	-0.47265697
6	0x3edb042b	0.42776617
7	0xbe1829a7	-0.14859639
8	0xbc1276a4	-0.008939419
9	0xbf29a31e	-0.6626452
10	0xbf102e2c	-0.5632045
11	0x3cfe4a6b	0.031041345
12	0x3e41a25b	0.1890959
13	0xbd9382d5	-0.072026886
14	0xbea8e997	-0.32990715
15	0xbdfa1835	-0.122116484
16	0x3d267da5	0.040647168
17	0x3db876bc	0.09007022
18	0xbc6e2a0f	-0.014536395
19	0xbea7aa2f	-0.32747027
20	0xbe57c2b9	-0.21070375
21	0xbf8309c1	-1.0237352
22	0x3f039f73	0.51415175
23	0x3ea38fd7	0.3194568
24	0xbe0e4b24	-0.13895851
25	0xbf62e412	-0.8862926
26	0xc0214c71	-2.5202906
27	0x3ed147a9	0.40874985
28	0xbce459bb	-0.027874818
29	0x3cd4ecc6	0.025991809
30	0xbee4ce80	-0.44688797
31	0xbf4e334f	-0.8054704
32	0xbebeb7b7	-0.37249538
33	0x3df15565	0.11783866
34	0x3d02a41b	0.031894784
35	0xbdb90768	-0.09034616
36	0xbf362a88	-0.7115865
37	0xbd9eb404	-0.07749179
38	0xbf3b2fd1	-0.7311984
39	0x3e78589c	0.24252552
40	0xbf92d494	-1.1471124
41	0xbec374a0	-0.38174915
42	0x3f00d0ea	0.5031878
43	0xbdfe309a	-0.12411614
44	0xbf80da3f	-1.0066603
45	0xbf84f990	-1.038866
46	0x3eb8de70	0.36107206
47	0x3ec4d399	0.38442686
48	0xbe1e9757	-0.15487419
49	0x3e91df3f	0.28490636
50	0xbf0c293b	-0.5475041
51	0xbdb05344	-0.08609632
52	0xbe6fe78c	-0.23428172
53	0x3de7201d	0.11285422
54	0xbf112f69	-0.5671297
55	0xbea355e1	-0.31901458
56	0xbf82dbcb	-1.0223325
57	0xbef6c22a	-0.4819501
58	0x3ea92dcb	0.3304275
59	0x3e14dd20	0.14537477
60	0xbe4b0e91	-0.19829775
61	0xbfcb8489	-1.5899822
62	0xbdbc98be	-0.09208821
63	0xbedba873	-0.42901954
64	0xbf52aa8e	-0.82291496
65	0x3e05edfb	0.13079064
66	0x3e560ba4	0.20902878
67	0xbda8e23d	-0.082462765
68	0xbe363753	-0.17794542
69	0xbcf6f716	-0.030147117
70	0xbea0010a	-0.31250793
71	0xbee4b788	-0.44671273
72	0xbf01cbc8	-0.5070157
73	0xbf318a2b	-0.6935145
74	0xbf7b9ca4	-0.9828589
75	0xbf136d26	-0.5758842
76	0xbfaa69a3	-1.3313488
77	0x3ec09e8e	0.37620968
78	0xbf3c2dc9	-0.7350736
79	0xbcfea09c	-0.031082444
80	0x3e83fcf0	0.25778913
81	0xbe4c092b	-0.19925372
82	0xbf81e448	-1.0147791
83	0x3db1e952	0.086870804
84	0x3eabf296	0.33583516
85	0x3ef8b244	0.48573506
86	0x3f0e8b3e	0.55681217
87	0xbfd370e6	-1.6518829
88	0x3cce3cf5	0.025175551
89	0xbe1b9262	-0.1519256
90	0x3d8c9bd3	0.068656586
91	0xbde420b7	-0.11139052
92	0xbcad8d53	-0.021185553
93	0xbe7ea827	-0.24868833
94	0xbf19cbf8	-0.60076857
95	0x3e1103c7	0.14161597
96	0x3dc1a49a	0.094552234
97	0xbf55cd3b	-0.8351628
98	0xbed6ece6	-0.41977614
99	0xbf8133dc	-1.0093951
100	0xbad118df	-0.0015952847
101	0x3efb3183	0.49061212
102	0xbdb73024	-0.08944729
103	0xbeebd251	-0.46058896
104	0x3e6052f9	0.21906652
105	0xbe5ecbe8	-0.21757472
106	0xbf081c64	-0.5316832
107	0xbf214e76	-0.63010347
108	0xbf39b164	-0.725363
109	0x3d2d3473	0.042286348
110	0xbbd5a425	-0.0065198117
111	0xbd341792	-0.04396779
112	0x3e379b28	0.17930281
113	0x3c5565cb	0.013024758
114	0xbd1f7b92	-0.038936205
115	0x3cc3ce4a	0.023902077
116	0xbd254514	-0.04034908
117	0xbf223662	-0.6336423
118	0xbdde2350	-0.10846579
119	0x3ea5bb0a	0.32369262
120	0x3dea1af1	0.1143092
121	0xbe3c3c98	-0.1838249
122	0xbcd57cbd	-0.026060456
123	0x3de75531	0.11295546
124	0xbb5e37fa	-0.0033907876
125	0xbf1af9eb	-0.60537595
126	0xbe9d8eae	-0.30772918
127	0xbf7b9416	-0.98272836
128	0x3da1c28e	0.078984365
129	0xbeb1ee36	-0.34752053
130	0x3eb77207	0.35829183
131	0xbde65d8f	-0.11248314
132	0xbf0c8f91	-0.54906565
133	0xbf3a8ecb	-0.72874135
134	0xbf83dd13	-1.0301841
135	0xbecfee0a	-0.40611297
136	0x3d96d7fd	0.07365415
137	0xbd3bf90c	-0.045891806
138	0xbef27a33	-0.47358856
139	0x3eefab59	0.46810415
140	0xbf67f485	-0.9060748
141	0xbd80cade	-0.06288694
142	0x3cac7899	0.0210536
143	0xbeea2851	-0.45733884
144	0x3c8fecfe	0.017569061
145	0xbec6602b	-0.38745245
146	0xbcf7883b	-0.030216327
147	0x3db68309	0.08911712
148	0xbc0b9e19	-0.00852158
149	0x3dc355a1	0.09537817
150	0x3e728850	0.23684812
151	0x3d7c9fc7	0.061675813
152	0x3c0caf3d	0.008586702
153	0x3d26aa23	0.0406896
154	0x3e6cb3d2	0.23115471
155	0x3ec976d2	0.39348465
156	0x3de1c4e3	0.11023881
157	0x3f188368	0.5957551
158	0xbe4fa434	-0.20277482
159	0x3d3b6f32	0.04576034
160	0xbdd1a7dd	-0.102370955
161	0xbdd7be01	-0.10534287
162	0xbeb93c86	-0.36178988
163	0xbf51bca1	-0.8192845
164	0x3f191998	0.5980468
165	0x3e14803e	0.14502046
166	0xbe144f6d	-0.14483424
167	0xbf15550e	-0.5833291
168	0xbbc913bd	-0.006136386
169	0x3e82f437	0.25576946
170	0x3ed8a58d	0.42313805
171	0xbcc6a795	-0.024249831
172	0x3f048e0d	0.5177925
173	0x3e9fde56	0.31224316
174	0xbe8ab20f	-0.27088973
175	0xbdc81f85	-0.09771637
176	0x3e7598df	0.23984097
177	0x3d016b89	0.031596694
178	0xbbcc211a	-0.006229532
179	0x3d420d86	0.04737618
180	0x3d801da9	0.06255657
181	0x3cb82dfc	0.022482865
182	0x3b3ba52d	0.0028632388
183	0x3e3bdb2c	0.18345326
184	0xbd7e73dd	-0.062122215
185	0xbc72b7e3	-0.01481435
186	0xbd9a0df2	-0.07522191
187	0xbecb62d1	-0.39723828
188	0xbeab92a2	-0.3351031
189	0xbf5d6ac9	-0.86491066
190	0xbf2310c9	-0.6369749
191	0xbe25c7ac	-0.1618945
192	0xbe48303e	-0.19549653
193	0xbf2dda93	-0.6791164
194	0xbedec2f0	-0.435081
195	0x3e87b64f	0.26506278
196	0x3ea8b7c9	0.32952717
197	0xbd508fc1	-0.050918344
198	0xbec1cb38	-0.37850356
199	0xbfef2428	-1.8682909
200	0x3e6022df	0.21888302
201	0x3ebea6e3	0.372367
202	0xbf8c091b	-1.0940279
203	0xbe49bd02	-0.19701007
204	0x3e886403	0.26638803
205	0x3f628b59	0.8849388
206	0x3c2ac927	0.010423935
207	0xbe315f2d	-0.17321463
208	0xbdc3c1ce	-0.0955845
209	0x3e5e353a	0.21699992
210	0x3ef4baf3	0.4779888
211	0xbffa2ddd	-1.9545246
212	0x3d976680	0.07392597
213	0xbfe57cf3	-1.7928756
214	0xbf33188e	-0.6995934
215	0x3f66afe8	0.9011216
216	0x3ed31251	0.41224912
217	0x3d11eeed	0.035628248
218	0x3eb139d0	0.3461442
219	0x3f265068	0.6496644
220	0x3e70b3c4	0.23506075
221	0xbe916000	-0.28393555
222	0x3f23e063	0.6401426
223	0xbec9fe30	-0.39451742
224	0x3ea3d613	0.31999263
225	0xbfc42d9a	-1.5326416
226	0xbea3a28e	-0.31959957
227	0x3e846e96	0.2586562
228	0xbdaf7a9d	-0.085683085
229	0xbedd81b6	-0.43263024
230	0xbe450a31	-0.19242169
231	0x3ec25f6e	0.37963432
232	0xbe801bea	-0.25021297
233	0xbc6c5a91	-0.01442589
234	0xbf805d87	-1.0028542
235	0x3f0dd031	0.553958
236	0xbc988326	-0.018617224
237	0xbe67ebc2	-0.22648528
238	0xbc44449d	-0.011979249
239	0xbf6c60e6	-0.92335355
240	0xbeb41d83	-0.35178766
241	0x3ec859f4	0.3913113
242	0xbd64ecf6	-0.055890046
243	0xbe7f24a8	-0.24916327
244	0xbf53f18e	-0.8279046
245	0xbe20a9b7	-0.15689741
246	0x3e7e1732	0.24813536
247	0x3e560708	0.2090112
248	0x3f015e46	0.50534475
249	0xbf49c104	-0.78810143
250	0x3e72f6c7	0.2372695
251	0x3ed67c7a	0.41891843
252	0xbf2cc512	-0.67488205
253	0x3e5d96f4	0.21639615
254	0x3e9cf771	0.30657533
255	0x3b7a758a	0.0038217031

value_stream.0.bias f4 [128]
0	0xbd541a75	-0.051783044
1	0xbeef5498	-0.46744227
2	0xbd7f0800	-0.06226349
3	0x3c4ad29b	0.012379314
4	0xbf404440	-0.7510414
5	0xbeff7741	-0.4989567
6	0xbfbe6a5e	-1.4876211
7	0xc05fc9cb	-3.4966915
8	0xbfd21dec	-1.6415381
9	0xbdf55f34	-0.11981049
10	0xbe0a6f7e	-0.13519093
11	0xbcb92348	-0.022599831
12	0xbcf86a4a	-0.03032412
13	0xbe80e7ee	-0.25176948
14	0xbfd5cb49	-1.6702663
15	0xbff5b874	-1.9196916
16	0x3d707230	0.058702648
17	0xbecbb34c	-0.3978523
18	0xbfb00541	-1.3751603
19	0xbe1455fb	-0.14485924
20	0xbfd64db5	-1.6742464
21	0xbec4fd6b	-0.38474593
22	0x3dfffa3c	0.124989
23	0xbdffda54	-0.12492815
24	0xbf9c200f	-1.2197284
25	0xbf20965b	-0.62729424
26	0x3c210940	0.0098288655
27	0x40614780	3.519989
28	0x3c37e8dc	0.011224952
29	0xbd844ed0	-0.06460345
30	0xbd359a98	-0.044336885
31	0x3fcca7fd	1.5988766
32	0xbc8969e0	-0.016774118
33	0xbde8d391	-0.11368478
34	0x3d856e6b	0.06515201
35	0xbffff601	-1.999695
36	0x3e943d55	0.28953043
37	0xbd5d4357	-0.0540193
38	0xc060371f	-3.5033643
39	0xbfc9a929	-1.5754749
40	0xbdf50a5e	-0.11964868
41	0xbbc6ca69	-0.0060666096
42	0xbd9861e1	-0.07440544
43	0xbfa35a79	-1.2761985
44	0xbdbe8865	-0.09303359
45	0xc05a409d	-3.4101937
46	0xbfc24b4b	-1.5179228
47	0xbf9f8372	-1.2461989
48	0xc005de92	-2.0917096
49	0x3f5a7ee1	0.8534985
50	0xbcfecfc1	-0.031104924
51	0xbdb5b25d	-0.08871911
52	0xbf9278fb	-1.144317
53	0xbe236ce1	-0.15959503
54	0xbd192ba0	-0.03739512
55	0xbdae0aa7	-0.084981255
56	0xbffbeeef	-1.9682292
57	0xbdd679e0	-0.104724646
58	0xbdd6c3c1	-0.10486556
59	0xc07ba48f	-3.9319189
60	0xbdb0cc55	-0.08632723
61	0xc01eb8f9	-2.4800398
62	0xc0774f39	-3.8642104
63	0x3e4eca57	0.20194374
64	0xbf3da535	-0.7408021
65	0xbe12b4c4	-0.14326769
66	0x3ffa3ac1	1.954918
67	0x4096368e	4.6941595
68	0xbd815947	-0.063158564
69	0xbfe9bcf4	-1.8260789
70	0x408efbd2	4.46824
71	0x3e2dff92	0.16992024
72	0x3b04f5f2	0.0020288196
73	0x40a37850	5.1084366
74	0xbd28cf6c	-0.041213438
75	0xbdcce817	-0.10005205
76	0xc06a6aae	-3.6627612
77	0xbcc969be	-0.024586555
78	0xbc20fa51	-0.009825305
79	0x3c959949	0.018261569
80	0x3f54f1f5	0.831817
81	0x3f16fe3d	0.58981687
82	0x3dda81be	0.106692776
83	0xbd16dc25	-0.03683104
84	0xc089830d	-4.2972474
85	0xbfe25850	-1.7683201
86	0xbde1bd8e	-0.11022483
87	0xbe1e4e14	-0.15459472
88	0xbd541b78	-0.05178401
89	0xbd3888ce	-0.045052342
90	0xbcea9437	-0.028635127
91	0xbf156afe	-0.5836638
92	0xbe23a88c	-0.15982264
93	0xc0384780	-2.879364
94	0xbe29f453	-0.16597109
95	0xc0233076	-2.5498328
96	0xbdd43ddc	-0.10363361
97	0x40274faa	2.6142373
98	0x3e46ad28	0.19401991
99	0x3d12065a	0.03565059
100	0xbc1b31a1	-0.009472282
101	0x3c4625c9	0.01209397
102	0xbdef0f1a	-0.11672802
103	0x3e74181d	0.23837323
104	0xc00244b9	-2.0354445
105	0xbe49424a	-0.19654194
106	0xbf1d99c4	-0.6156275
107	0xbe71fd62	-0.23631814
108	0xbdc27052	-0.0949408
109	0x3f0ca9a8	0.54946375
110	0x3f9d8fa8	1.2309465
111	0xbd1e815e	-0.038697593
112	0xbcfae356	-0.03062598
113	0x4092bed1	4.585793
114	0xbfd14ea4	-1.6352124
115	0x3f7ecc4a	0.9953047
116	0xbe0dc267	-0.1384369
117	0xbfc588f5	-1.5432421
118	0x4049e205	3.1544201
119	0xbfd3be11	-1.6542379
120	0xbd89c4c9	-0.06726987
121	0xbd52a082	-0.051422603
122	0x3e986028	0.2976086
123	0xbc9081af	-0.017639963
124	0x4084c367	4.148853
125	0xbdacf244	-0.08444646
126	0xbfd3dfbf	-1.6552657
127	0xbd2240c2	-0.03961254

value_stream.2.weight f4 [1, 128]
0	0xbec7866d	-0.38969746
1	0xbdf49f36	-0.119444296
2	0xbc44c79b	-0.01201048
3	0x3d059df9	0.032621358
4	0xbd3ea6b9	-0.046545718
5	0xbeca4f74	-0.39513743
6	0xbe913f65	-0.2836868
7	0xbecfebd8	-0.40609622
8	0xbbf12f43	-0.0073603704
9	0xbf4d7131	-0.8025084
10	0x3c4e8405	0.012604718
11	0xbd6fb2df	-0.058520194
12	0xbc191ed0	-0.009345725
13	0xbf00adfc	-0.5026548
14	0x3bbcb53f	0.005758911
15	0xbe8a9376	-0.2706563
16	0x3ce75fb8	0.028243884
17	0xbfa849f0	-1.3147564
18	0xbcfe0082	-0.031006102
19	0xbef93332	-0.4867187
20	0xbf2d04a5	-0.6758521
21	0xbeb8486d	-0.35992756
22	0x3e61814a	0.22021976
23	0xbf4f9355	-0.81084186
24	0xbe5beae5	-0.21476324
25	0xbe71e29c	-0.23621601
26	0xbcaa3b35	-0.020780185
27	0x3ed8cdb9	0.42344454
28	0x3d104002	0.035217293
29	0xbb462029	-0.0030231571
30	0x3ad13d50	0.0015963707
31	0x3efe8d93	0.49717388
32	0x3c78d6b8	0.015187912
33	0x3d931fe9	0.07183821
34	0x3ef66002	0.48120123
35	0x3ba359ef	0.004985086
36	0x3ee4f4b9	0.4471796
37	0xbd74a312	-0.05972583
38	0xbf03edc7	-0.51534694
39	0xbedfd65a	-0.43718225
40	0x3c7284fa	0.014802212
41	0xbabc2f5b	-0.0014357375
42	0x3caa1c71	0.020765515
43	0x3c66d1a4	0.014088068
44	0x3d11c29f	0.035585996
45	0xbe7c5f4e	-0.24645731
46	0xbeb46070	-0.35229826
47	0xbed5d6f9	-0.41765574
48	0x3b5266aa	0.003210465
49	0x3d3aa0b4	0.045563415
50	0x3b3c745a	0.0028755874
51	0x3b492596	0.003069257
52	0x3c75b589	0.014996895
53	0xbc113b2e	-0.008864207
54	0x3d824a75	0.06361858
55	0xbae4ee7c	-0.0017466093
56	0xbf6ded24	-0.9293997
57	0x3c90d70b	0.017680665
58	0x3c0a4c62	0.008441063
59	0xbf07b058	-0.53003454
60	0xbd21d8c5	-0.03951337
61	0xbcdd9256	-0.027047317
62	0xbf0e83b9	-0.5566974
63	0x3f2336ff	0.6375579
64	0xbe76605c	-0.24060196
65	0xbfb33807	-1.4001473
66	0x3f97447f	1.1817778
67	0x3f965800	1.1745605
68	0x3c5875b2	0.0132116545
69	0x3b84112a	0.0040303664
70	0x3f1ab1d6	0.60427606
71	0x3ee6bd9d	0.45066538
72	0x3d46db3f	0.048548933
73	0x3fa9c98f	1.3264636
74	0xbb78c837	-0.0037961134
75	0xbf282ab3	-0.65690154
76	0xbe8638c4	-0.26215184
77	0x3b4e9807	0.003152372
78	0x3cdb4abd	0.026769036
79	0x3f843f20	1.0331764
80	0x3c42e477	0.011895291
81	0x3f28edf5	0.65988094
82	0x3ed9d858	0.4254787
83	0x3cd552cd	0.026040459
84	0xbf6f0332	-0.9336425
85	0x3c53e838	0.012933783
86	0x3c8ac596	0.01693992
87	0x3dcce755	0.100050606
88	0x3d7aa848	0.06119564
89	0x3c9b68aa	0.018970806
90	0x3e0040aa	0.12524667
91	0xbd81f271	-0.0634507
92	0xba9cf98c	-0.0011976226
93	0xbec935df	-0.39298913
94	0x400be3b2	2.1857724
95	0xbf15884a	-0.58411086
96	0xbbd9dca2	-0.006648616
97	0x3f31479e	0.69249904
98	0x3eccc7c3	0.39996156
99	0xbf9c041c	-1.2188754
100	0x3c1e8bf6	0.009676924
101	0x3d3d673b	0.046241026
102	0x3c95a07a	0.018264998
103	0xbee4bfc2	-0.4467755
104	0x3c44853f	0.011994659
105	0xbf05c351	-0.52251154
106	0xbe95f4a4	-0.29288208
107	0x3eebde25	0.4606792
108	0x3ce2d7f1	0.02769086
109	0xbe91929e	-0.28432173
110	0x3dbb31eb	0.091403805
111	0xbbbc1033	-0.005739236
112	0xbcc2083c	-0.023685567
113	0x3f6a09f4	0.9142144
114	0xbf14112b	-0.57838696
115	0x3d2ebc6c	0.04266016
116	0x3c072315	0.00824811
117	0xbf22286e	-0.6334294
118	0x3e859053	0.26086673
119	0xbe874de5	-0.26426616
120	0xbc8e9769	-0.017406182
121	0x3a8eeacb	0.0010903714
122	0xbf4df384	-0.804497
123	0x3f646dcf	0.89230055
124	0x3fb571b1	1.4175321
125	0x3c719fb5	0.01474755
126	0xbc1e67d4	-0.009668309
127	0xbc01f5d1	-0.007932142

advantage_stream.0.weight f4 [128, 128]
0	0x3e23f9ba	0.16013232
1	0xbed277e9	-0.4110711
2	0x3dd50755	0.10401789
3	0xbdb95df1	-0.09051121
4	0xbe84cfbd	-0.25939742
5	0x3ec1174e	0.37713093
6	0x3ea374df	0.31925103
7	0x3d98e8fc	0.07466313
8	0xbf15c4ff	-0.5850372
9	0x3daae259	0.08343954
10	0xbec1cc53	-0.378512
11	0xbe30114e	-0.17194101
12	0x3f040590	0.5157099
13	0xbebdd6d9	-0.37077978
14	0xbe931bfb	-0.28732285
15	0xbee79415	-0.45230165
16	0x3d88f8b2	0.0668806
17	0x3d0c9878	0.034325093
18	0xbd89dba0	-0.06731343
19	0x3e8dda5f	0.27705666
20	0x3ebc9c01	0.36837772
21	0xbdc6e964	-0.097124845
22	0xbde1321f	-0.10995888
23	0x3ef492a6	0.47768134
24	0xbc0f9d82	-0.00876558
25	0xbd24bf33	-0.040221404
26	0xbe214b62	-0.15751413
27	0xbcfebeef	-0.031096904
28	0x3d7202a3	0.059084546
29	0xbe409221	-0.18805744
30	0xbe1bd7a0	-0.15218973
31	0x3e7de41c	0.24794048
32	0xbe93551d	-0.28775874
33	0xbe4a3358	-0.19746149
34	0xbee5ecc2	-0.44907194
35	0x3dc227d4	0.09480253
36	0xbe82b03a	-0.25525075
37	0xbeb06031	-0.34448388
38	0xbcf628c9	-0.030048745
39	0xbce6a150	-0.028153092
40	0xbc6873cb	-0.014187763
41	0x3e23d81b	0.16000406
42	0xbe79fcf7	-0.24412905
43	0x3d4a4cbd	0.04938959
44	0xbea77e5f	-0.327136
45	0xbd3d696f	-0.046243127
46	0xbe8f7c6b	-0.2802461
47	0x3ebf52e9	0.37367943
48	0xbf441d1a	-0.76606905
49	0xbeb7aa1f	-0.3587198
50	0x3c690a41	0.014223636
51	0xbe12fd01	-0.14354326
52	0x3daf8e3c	0.08572051
53	0xbe8c5be9	-0.27413872
54	0x3e92f5f3	0.2870327
55	0xbdcd9208	-0.10037619
56	0xbe7e9654	-0.24862033
57	0xbeee4fe7	-0.46545336
58	0x3eab13e1	0.33413604
59	0xbee4756e	-0.44620842
60	0xbf2ba3f8	-0.6704707
61	0xbb962832	-0.0045824284
62	0xbe984d48	-0.2974646
63	0x3c93c9b1	0.01804051
64	0x3d2e788f	0.042595442
65	0xbcc82e0f	-0.024436025
66	0xbb3ca8d1	-0.0028787146
67	0xbe0c181c	-0.13681072
68	0xbd52a08f	-0.05142265
69	0x3dec6de0	0.115443945
70	0x3d79b724	0.060965672
71	0xbf02a879	-0.5103832
72	0xbdeff335	-0.1171631
73	0x3d2d7feb	0.04235832
74	0x3ea05007	0.31311056
75	0xbe78a1a7	-0.24280415
76	0xbebd0d11	-0.3692403
77	0x3db748ea	0.08949454
78	0x3e4594af	0.19295
79	0xbe08bbcd	-0.1335289
80	0x3e4d86fa	0.2007102
81	0xbdc15c9f	-0.09441494
82	0xbf3696ae	-0.7132367
83	0x3e79e811	0.24404933
84	0xbedb6384	-0.42849362
85	0x3eb8f598	0.36124873
86	0x3f2b49c4	0.6690943
87	0x3df1bcae	0.11803566
88	0xbd8fd6e5	-0.0702341
89	0xbfaf65d2	-1.3702948
90	0xbf29a777	-0.66271156
91	0xbf079772	-0.5296546
92	0xbf638008	-0.88867235
93	0x3d84b9fe	0.06480788
94	0xbdc44b11	-0.0958463
95	0xbebe89d4	-0.3721453
96	0xbf03c474	-0.5147164
97	0xbe981652	-0.2970453
98	0xbedd59c0	-0.43232536
99	0x3ca6cbc8	0.020360842
100	0xbc06daaa	-0.0082308445
101	0xbea762e9	-0.3269265
102	0x3e8233b9	0.25430086
103	0xbe7da0a3	-0.2476831
104	0xbe013968	-0.12619555
105	0xbe4dc8a5	-0.20096071
106	0xbefffcc2	-0.49997526
107	0xbeec50d5	-0.4615542
108	0x3e276fc2	0.16351226
109	0xbde28430	-0.11060369
110	0xbdb17ab4	-0.08665982
111	0xbd47432e	-0.048648052
112	0x3dc056a9	0.09391529
113	0x3d9907a7	0.07472163
114	0xbdc28c4a	-0.09499414
115	0x3de07a44	0.1096082
116	0xbdb7234a	-0.08942278
117	0x3f0eb5be	0.55746067
118	0xbea797ed	-0.32733098
119	0xbe783037	-0.24237143
120	0xbe27be46	-0.16381177
121	0x3f165284	0.5871966
122	0xbe8b2fde	-0.27184957
123	0xbe9f63da	-0.31130868
124	0xbdbdcf00	-0.09267998
125	0xbdc6c6eb	-0.09705909
126	0x3da75920	0.08171296
127	0xbdf59756	-0.11991756
128	0x3cdba9cb	0.026814362
129	0x3eefbb28	0.46822476
130	0x3e985264	0.2975036
131	0x3cdd010f	0.026978044
132	0x3eb0a0e4	0.3449775
133	0xbe609759	-0.21932735
134	0x3e781ca4	0.24229676
135	0xbe36a133	-0.1783493
136	0x3f1748e7	0.59095615
137	0xbdc4e42d	-0.096138336
138	0x3f59bc08	0.8505254
139	0xbf86ec59	-1.0540878
140	0xbd1b8d87	-0.037976768
141	0x3e66f059	0.22552623
142	0x3f4bd15a	0.7961632
143	0xbe329ef6	-0.17443451
144	0xbd9e7157	-0.077364616
145	0xbd8e2f90	-0.069426656
146	0xbd4aea5b	-0.049539905
147	0xbf1d95db	-0.61556786
148	0xbf4b5631	-0.7942839
149	0xbe61a3b7	-0.22035109
150	0x3f0f9882	0.56092083
151	0xbfaa7c73	-1.3319229
152	0xbd967fd9	-0.07348604
153	0x3dfee0bb	0.12445208
154	0xc0240eb9	-2.5633986
155	0xbc929fe6	-0.017898511
156	0xbe692566	-0.22768173
157	0x3e861893	0.26190624
158	0xbeda6232	-0.42653042
159	0xbe3a6886	-0.18203935
160	0x3bdf7b61	0.006820128
161	0x3c7bfbe5	0.015379881
162	0x3f3e8632	0.74423516
163	0x3f0e8108	0.55665636
164	0x3f39da79	0.7259899
165	0xbe777118	-0.24164236
166	0x3efc85f7	0.49320957
167	0xbf3f7a47	-0.74795955
168	0xbf3f0408	-0.74615526
169	0x3d8e1c86	0.06939034
170	0xbfdfcb72	-1.7483962
171	0xbec33509	-0.381264
172	0xbf8abfff	-1.0839843
173	0x3e520e4e	0.2051327
174	0x3fc3260b	1.5245985
175	0xbe76270f	-0.24038337
176	0xbd661e40	-0.056181192
177	0x3e203074	0.15643483
178	0x3f166da3	0.5876104
179	0xbcfb687e	-0.030689474
180	0xbd4eeb41	-0.050517324
181	0xbee13a76	-0.43989915
182	0xbf6deaa6	-0.9293617
183	0xbe1c96ee	-0.1529195
184	0x3dbf6900	0.09346199
185	0x3fa38490	1.277483
186	0xbebf3685	-0.37346283
187	0x3f296e4b	0.6618392
188	0x3f1cac76	0.61200655
189	0x3db929fc	0.09041211
190	0xbeeb2726	-0.45928305
191	0x3ee0b5a6	0.43888587
192	0xbf0b2956	-0.5435995
193	0x3fa70940	1.3049698
194	0xbee3578e	-0.44402736
195	0xbd8fee28	-0.070278466
196	0xbeb8d4ad	-0.3609976
197	0xbdb27158	-0.08713025
198	0x3ec5a43a	0.38601857
199	0x3d89ba20	0.06724954
200	0xbf9f51d3	-1.2446846
201	0x400de1e7	2.216913
202	0x3e35f319	0.17768516
203	0xbeeb3a1c	-0.4594277
204	0xbe6ecf19	-0.23321189
205	0xbe7f086c	-0.24905556
206	0x3db9c5a2	0.090708986
207	0x3fa0b383	1.2554783
208	0xbf129114	-0.5725262
209	0x3e89f24a	0.26942664
210	0xbf0fd2e7	-0.56181186
211	0xbe515d52	-0.20445755
212	0x3de25f2b	0.11053308
213	0xbf084bf9	-0.53240925
214	0x3c8b9c65	0.017042348
215	0xbebd81b6	-0.37013024
216	0xc016bab4	-2.3551455
217	0x3ee7703e	0.45202821
218	0x3dc8887a	0.09791656
219	0x3ef66bde	0.4812917
220	0xbf18ef47	-0.5974011
221	0xbeba0b29	-0.3633664
222	0xbfaf62b0	-1.3701992
223	0xbe242c0f	-0.16032432
224	0x3f5e2cda	0.8678719
225	0x3e9c8f15	0.30577913
226	0x3d2725e1	0.04080761
227	0xbfb65577	-1.4244832
228	0xbce3684f	-0.0277597
229	0x3f6bfdef	0.92184347
230	0x3ebc3171	0.3675647
231	0xbfbff905	-1.499787
232	0x3d4fd15e	0.050736777
233	0xbf3cee74	-0.7380135
234	0x3ef52e5e	0.47886938
235	0x3e6f40a8	0.23364508
236	0x3d9d0fbd	0.076690175
237	0xbd9e5b50	-0.0773226
238	0x3f94a86b	1.1613897
239	0x3e3f8804	0.1870423
240	0xc025986a	-2.5874276
241	0xbcd6d931	-0.026226612
242	0xbe94c5d2	-0.29057175
243	0x3fd33b47	1.6502465
244	0x3eb96f79	0.3621786
245	0x3b83ed1c	0.0040260684
246	0x3f26c9ba	0.6515156
247	0x3f1a0fe5	0.60180503
248	0xbf9c9035	-1.2231508
249	0xbeeadcc8	-0.45871568
250	0xbe84c4bc	-0.25931346
251	0x3f58e34b	0.8472182
252	0xbe79974c	-0.24374121
253	0xbf63e054	-0.8901417
254	0xbdeadc4b	-0.11467799
255	0x3e6d3bbd	0.2316732

advantage_stream.0.bias f4 [128]
0	0x3f8388b9	1.02761
1	0xbe7385ad	-0.23781462
2	0x3d4b161b	0.04958163
3	0x3f073bd6	0.5282568
4	0x3efcbf05	0.49364486
5	0xbd518be5	-0.051158804
6	0x3d17ca0b	0.037057918
7	0xbec8a6ce	-0.39189762
8	0xbc983d58	-0.018583938
9	0xbe95b462	-0.29239184
10	0xbe8c8e93	-0.27452525
11	0x3d60769e	0.054800622
12	0xbf0085b2	-0.50204
13	0xbf4c5ec8	-0.79832125
14	0x3f2cefa8	0.67553186
15	0xbec453ae	-0.38345093
16	0xbda3563a	-0.07975431
17	0x3db7ae77	0.089688234
18	0xbe4c3d00	-0.19945145
19	0x3ad6577c	0.0016352977
20	0xbc7e45df	-0.015519588
21	0xbe86dec0	-0.2634182
22	0xbe46e68b	-0.19423883
23	0xbec43678	-0.38322806
24	0xbe942b95	-0.289395
25	0xbe1496a5	-0.14510591
26	0xbe845b98	-0.2585113
27	0x3e93f375	0.2889668
28	0x3e4713d9	0.19441165
29	0x3f8fe7a7	1.124257
30	0xbeca6636	-0.39531106
31	0xbd22b48f	-0.039722975
32	0x3f908b1b	1.1292452
33	0x3fa25ccb	1.2684568
34	0x3d5c4da6	0.05378499
35	0xbde6191d	-0.11235259
36	0x3ccfb186	0.025353204
37	0x3d8addd8	0.067805946
38	0xbde59260	-0.112095594
39	0xbdef57cb	-0.11686667
40	0x3e80e298	0.25172877
41	0x3e962bb4	0.29330218
42	0xc0079db0	-2.1189995
43	0xbe11bfc7	-0.14233314
44	0xbee95aac	-0.4557699
45	0x3f1196f8	0.56870985
46	0xbd46ed2e	-0.048566036
47	0x3d712e55	0.058882076
48	0x3eb42286	0.3518259
49	0xbdf00963	-0.117205404
50	0x3f48f550	0.7849932
51	0xbdcf11b0	-0.101107955
52	0xbe18323a	-0.1486291
53	0x3f939641	1.1530229
54	0x3e896a4d	0.26838914
55	0x3f05929a	0.5217682
56	0xbe025111	-0.12726237
57	0xbdf621b1	-0.12018145
58	0xbdd9136b	-0.10599407
59	0x3c0f71fe	0.008755205
60	0xbe8f84f7	-0.28031132
61	0x3fa53219	1.2905914
62	0x3e828e3e	0.25499147
63	0x3e2c5526	0.16829357
64	0xbeb428ee	-0.35187477
65	0xbd6aaf45	-0.057296056
66	0xbdf1e28d	-0.11810789
67	0xbd5f6306	-0.054537795
68	0xbca12387	-0.019670261
69	0xbe684cd0	-0.22685552
70	0x3dcc05e8	0.09962064
71	0x3ca5a855	0.020221869
72	0x3fd55e2a	1.6669362
73	0xbf7c7868	-0.98621225
74	0xbdf382a0	-0.11890149
75	0xbdc17688	-0.09446436
76	0xbe0053c3	-0.12531953
77	0x3e148d96	0.14507136
78	0xbe2cdb42	-0.16880515
79	0x3e77f8d7	0.24216019
80	0xbed74680	-0.42045975
81	0x3e532910	0.20621133
82	0xbddc0b7c	-0.10744378
83	0xbefe88ca	-0.49713737
84	0x3de17ec8	0.1101051
85	0xbb0c8213	-0.0021439835
86	0xbf109212	-0.56472886
87	0x3fec25a6	1.8448989
88	0xbe6e822e	-0.23291847
89	0xbd0fbca0	-0.035091996
90	0x3fc11357	1.5084027
91	0x3af2c624	0.0018522185
92	0xbde29396	-0.11063306
93	0xbdeb26cc	-0.11482009
94	0x3b984355	0.0046466985
95	0xbe2ff88d	-0.17184658
96	0xbdbcf45c	-0.09226295
97	0xbd800942	-0.06251766
98	0xbd910359	-0.07080717
99	0xbe39c26e	-0.18140575
100	0xbe0c55ea	-0.13704649
101	0x3d045ad9	0.0323132
102	0x3de23331	0.1104492
103	0x3d16fd65	0.03686275
104	0xbc7b41d0	-0.015335515
105	0xbd845290	-0.0646106
106	0x3e4349a3	0.19071059
107	0xbd6cc31f	-0.05780327
108	0xbc25b00f	-0.010112776
109	0xbc0ee441	-0.008721412
110	0xbf039387	-0.51396984
111	0xbd9da530	-0.07697523
112	0xbe9d6c0b	-0.30746493
113	0x3eaefa51	0.3417535
114	0x3e46cf10	0.19414926
115	0xbbeff36c	-0.0073227193
116	0x3bbd8047	0.005783114
117	0xbdb860df	-0.09002852
118	0x3c86b2de	0.016442712
119	0xbedbdd27	-0.42942163
120	0xbd33d772	-0.043906637
121	0x3fa8970a	1.3171093
122	0x3ed5e840	0.41778755
123	0xbd18f10a	-0.037339248
124	0x3f001abf	0.5004081
125	0xbde46825	-0.111526765
126	0xbdfa1a32	-0.122120276
127	0xbe79e6cc	-0.24404448

advantage_stream.2.weight f4 [6, 128]
0	0x3de1e814	0.110305935
1	0xbd8756d1	-0.06608356
2	0x3cd3faf1	0.025876494
3	0x3f942078	1.1572409
4	0x3dfd86ef	0.12379252
5	0xbd537ddd	-0.051633704
6	0x3d7fcd37	0.062451568
7	0xbd93b85b	-0.072128974
8	0xbd1574ad	-0.036488224
9	0x3e827d9c	0.25486457
10	0xbe49790d	-0.19675083
11	0xbdc99e16	-0.098446056
12	0x3eb165a9	0.34647873
13	0x3ebc7e45	0.36815086
14	0x3ccccc60	0.024999797
15	0xbe9548d0	-0.29157114
16	0x3da3531d	0.07974837
17	0xbcb7f51f	-0.02245575
18	0x3b4ce766	0.0031265854
19	0x3d801263	0.06253507
20	0x3c0bdd44	0.008536641
21	0xbeacc150	-0.33741236
22	0xbf1b563b	-0.6067845
23	0x3ea2de0d	0.31810036
24	0x3e676372	0.22596529
25	0x3c12a819	0.00895121
26	0xbe7ebb6a	-0.2487618
27	0xbde86a1e	-0.11348365
28	0x3ddfa2af	0.10919701
29	0x3ea58e0c	0.32334936
30	0x3e6a9b87	0.22910891
31	0x3eeac706	0.45854968
32	0xbd5538c0	-0.052056074
33	0x3e7fd233	0.24982528
34	0x3cc4aba0	0.024007618
35	0xbd12f214	-0.035875395
36	0xbafae786	-0.0019142486
37	0x3e91a80a	0.28448516
38	0x3d78f96c	0.060784742
39	0x3cb009e1	0.021489086
40	0x3e0c13e1	0.13679458
41	0xbe11b6b4	-0.14229852
42	0x3da7288b	0.0816203
43	0x3cd7cfce	0.026344206
44	0x3da64008	0.08117682
45	0xbf36f4f2	-0.71467507
46	0xbd0d571f	-0.034506913
47	0x3f0afc40	0.5429115
48	0x3ebf5be1	0.37374786
49	0xbd3de061	-0.046356563
50	0x3d51db0d	0.051234294
51	0xbd54d2f3	-0.05195899
52	0xbc3187ab	-0.010835568
53	0x3e82164f	0.25407645
54	0x3e8acf06	0.2711107
55	0x3e75adf9	0.23992147
56	0xbd8f0c2c	-0.069847435
57	0xbc81afe1	-0.015830936
58	0x3c27a8f2	0.010233151
59	0xbdbf5739	-0.09342808
60	0xbfb458a9	-1.4089557
61	0x3e227828	0.15866148
62	0xbc6ad2f1	-0.014332519
63	0xbe42177d	-0.18954273
64	0x3f04465b	0.51669854
65	0xbc4f49a0	-0.012651831
66	0xbd3780ee	-0.04480069
67	0xbcfd1df9	-0.030898081
68	0xbe0c60ff	-0.13708876
69	0xbd8a6d35	-0.06759111
70	0x3e1785b9	0.14797105
71	0x3ca30418	0.019899413
72	0xbd1e8d2e	-0.03870886
73	0x3e2c391e	0.16818663
74	0xbdbac4a4	-0.091195375
75	0xbcc82e8b	-0.024436256
76	0xbda9ee0b	-0.08297356
77	0xbf3ceb95	-0.7379697
78	0xbf1ff991	-0.62490183
79	0x3f4433cf	0.76641554
80	0xbb3f1f07	-0.002916278
81	0xbdb29385	-0.08719543
82	0xbd25c1a9	-0.04046789
83	0xbdb1c5bc	-0.08680293
84	0x3b2694ec	0.0025418354
85	0x3f0b49ee	0.5440968
86	0xbebb06c0	-0.36528587
87	0xbe8c71ea	-0.2743066
88	0x3eb4810c	0.35254705
89	0x3db55b09	0.08855254
90	0x3e79214d	0.2432911
91	0x3ea4170e	0.3204884
92	0x3cf08be7	0.029363586
93	0x3cbe7cee	0.02325293
94	0x3e77fe99	0.24218215
95	0x3d6baa60	0.05753553
96	0xbd1307f0	-0.03589624
97	0xbd9fdd5a	-0.07805891
98	0x3e0bf697	0.13668285
99	0xbf1be80f	-0.6090097
100	0xbd981fc0	-0.07427931
101	0xbee06279	-0.4382513
102	0x3d1654cd	0.036701966
103	0xbf819637	-1.0123967
104	0xbd6d57bc	-0.057945
105	0x3bd908ab	0.0066233478
106	0xbe9d3f4a	-0.30712348
107	0xbd089b73	-0.033351373
108	0xbd17940f	-0.037006434
109	0x3f79b3c4	0.97539926
110	0x3deeb761	0.116560705
111	0x3d0847dd	0.03327166
112	0x3e1dee39	0.15422906
113	0x3db29d41	0.087214
114	0xbf058c95	-0.52167636
115	0xbf11d9a6	-0.5697273
116	0xbbf6ca3f	-0.007531434
117	0xbdb62fa1	-0.08895803
118	0xbc60a326	-0.013710773
119	0x3e7149eb	0.23563354
120	0x3efdd582	0.49576956
121	0x3e8657bd	0.26238814
122	0x3ee275d9	0.44230536
123	0xbda460ba	-0.08026262
124	0xbe300d90	-0.17192674
125	0xbb8f45a8	-0.0043723173
126	0x3d8bab3d	0.068197705
127	0xbd2407a0	-0.040046334
128	0x3e4c237d	0.19935413
129	0x3e5878f6	0.21139893
130	0x3cc4d295	0.024026195
131	0x3e00798f	0.12546371
132	0x3e600c3b	0.21879666
133	0xbb79d333	-0.003812027
134	0xbddb7bfb	-0.10717007
135	0x3e00dd5a	0.12584439
136	0x3d12b9eb	0.035821836
137	0xbd47720c	-0.048692748
138	0xbda3d985	-0.08000473
139	0xbef27319	-0.47353438
140	0x3e132779	0.14370526
141	0x3ed4ad3b	0.41538414
142	0x3f05b1d4	0.5222447
143	0x3e4728c8	0.1944915
144	0x3d8f4c22	0.06996943
145	0xbc64eaa7	-0.013971961
146	0xbe707bf8	-0.2348479
147	0x3d6776f8	0.05650994
148	0x3b805b97	0.0039171684
149	0x3e1b6c1e	0.15177962
150	0xbd8e81bc	-0.069583386
151	0x3b1e0da3	0.0024117015
152	0xbe9b7bf6	-0.30368012
153	0xbc93c5ea	-0.018038709
154	0x3c832ae5	0.016011665
155	0x3dbd66d3	0.09248128
156	0xbe06c680	-0.13161659
157	0x3df8c84b	0.12147578
158	0x3e54a14b	0.20764653
159	0x3d5fda72	0.054651685
160	0xbe229fd3	-0.1588128
161	0x3e483a59	0.19553508
162	0x3dae6e75	0.08517162
163	0x3cb1df29	0.021712856
164	0xbd365043	-0.044510137
165	0x3eb9facc	0.36324155
166	0x3cdc0072	0.026855681
167	0x3ca132e3	0.019677585
168	0x3ee11e94	0.43968642
169	0xbce7a208	-0.028275505
170	0x3e45ddc5	0.1932288
171	0x3c4ff319	0.012692236
172	0x3de0de52	0.10979904
173	0xbf93b2b2	-1.1538908
174	0xbda3f162	-0.080050245
175	0xbf25135e	-0.64482677
176	0x3e60df3e	0.2196016
177	0x3d6222c5	0.05520894
178	0xbd6142ce	-0.05499535
179	0xbc7e610a	-0.015526066
180	0x3ea64ce0	0.32480526
181	0x3edd9d15	0.43283907
182	0xbe6b6bb0	-0.22990298
183	0x3edc8a2a	0.4307416
184	0xbd54b869	-0.05193368
185	0x3da655ea	0.081218556
186	0x3d19250d	0.03738885
187	0xbd0271b3	-0.031846713
188	0xbf87dfa8	-1.061513
189	0x3d990c1c	0.07473013
190	0xbfdb4c5f	-1.7132682
191	0x3d151d03	0.03640462
192	0xbf0a84fc	-0.5410917
193	0xbd4b0ebf	-0.04957461
194	0x3d0c5d5f	0.034268733
195	0x3c04fcec	0.008116942
196	0x3d898212	0.06714262
197	0x3dc858cf	0.09782564
198	0x3e3e8c6d	0.18608256
199	0x3ce09f67	0.027419759
200	0x3da42abd	0.08015964
201	0x3df592b6	0.119908735
202	0xbf31d578	-0.6946635
203	0x3d3a7814	0.04552467
204	0xbc17bc9d	-0.0092612775
205	0x3e854c89	0.26034954
206	0xbfb862c9	-1.4405147
207	0x3f518fa3	0.818598
208	0xbdfce0df	-0.12347578
209	0x3e5a51dd	0.21320291
210	0xbbc6d48e	-0.006067819
211	0xbf90111b	-1.125522
212	0x3d085ddd	0.03329264
213	0xbf1d75b5	-0.6150773
214	0xbf61a926	-0.88148725
215	0xbf3972db	-0.7244088
216	0x3c84c39f	0.01620656
217	0x3d803d94	0.06261745
218	0x3e2626dd	0.16225763
219	0xbf7fcc82	-0.9992143
220	0xbd3361c3	-0.043794405
221	0x3df05de1	0.11736656
222	0xbe881294	-0.26576674
223	0xbc6dd800	-0.01451683
224	0xbcd532c1	-0.026025178
225	0xbebd6992	-0.36994606
226	0xbd67991f	-0.056542512
227	0xbf7826b8	-0.9693408
228	0xbcb1a0ee	-0.021683183
229	0xbe8961c9	-0.26832417
230	0x3bf62983	0.007512273
231	0xbee79dc5	-0.45237556
232	0xbd11858b	-0.035527747
233	0x3cdfee40	0.027335286
234	0xbef73ca0	-0.4828844
235	0x3dbaa5f5	0.09113685
236	0xbc8bae31	-0.017050834
237	0xbd87e6a1	-0.06635786
238	0x3e263a57	0.16233192
239	0x3d4e9b8a	0.050441302
240	0x3f40665d	0.75156194
241	0xbe120d59	-0.14262904
242	0xbe8fe286	-0.2810251
243	0xbdbd65bd	-0.09247921
244	0xbdb05e14	-0.08611694
245	0xbdd7fceb	-0.10546287
246	0x3e974989	0.2954829
247	0x3e8229f9	0.25422648
248	0xbe9c5d55	-0.30539957
249	0x3e00372f	0.12521051
250	0x3f2e6272	0.68118966
251	0xbd1f270b	-0.038855594
252	0xbef0d3c0	-0.47036552
253	0x3d3e1c5b	0.04641376
254	0x3d176a35	0.03696652
255	0x3eb11711	0.3458791

advantage_stream.2.bias f4 [6]
0	0x3f5dcc66	0.8664001
1	0x3f394f5a	0.72386706
2	0xbfa28257	-1.2696027
3	0xbf76f1a7	-0.9646248
4	0xbeb59224	-0.3546306
5	0xbcfb9e0e	-0.030715015
